Models/meander/model.pth (torch, 78785 bytes, 11 tensors)

actor.0.weight f4 [64, 62]
0	0x3dd1bc95	0.10241047
1	0x3da129b9	0.07869286
2	0xbe1b0e11	-0.15142085
3	0xbc50cdd8	-0.0127443895
4	0x3d3f8c36	0.046764575
5	0x3ee96a2c	0.45588815
6	0x3e82a0c2	0.25513273
7	0x3f2f02ea	0.6836382
8	0xbd514888	-0.05109456
9	0xbdd9bab5	-0.10631315
10	0xbd66ea30	-0.056375682
11	0xbef3f08f	-0.4764447
12	0xbe189176	-0.14899239
13	0xbe343cd5	-0.1760133
14	0x3d5e2cd1	0.05424196
15	0xbe30dc0e	-0.17271444
16	0xbca1670c	-0.019702457
17	0x3cbf1c6e	0.023328986
18	0xbdb05476	-0.0860986
19	0xbe000937	-0.12503515
20	0x3d698a99	0.057016943
21	0x3dcb0565	0.09913138
22	0xbcd61c84	-0.026136644
23	0x3dbb0c49	0.091332026
24	0xbcd4ccba	-0.025976527
25	0x3bf58327	0.007492441
26	0x3deb82ce	0.114995584
27	0xbe2555e6	-0.16146049
28	0x3bc5a1a2	0.006031231
29	0x3a476906	0.0007606897
30	0xbca9787c	-0.020687334
31	0xbe161ef0	-0.14660239
32	0x3e7fb9d6	0.24973235
33	0x3e736342	0.23768333
34	0xbdb5b6ba	-0.08872743
35	0xbdef009e	-0.116700396
36	0xbe8a8e49	-0.2706168
37	0xbe1d25f3	-0.15346508
38	0x3e952e55	0.2913691
39	0x3f03e802	0.5152589
40	0xbdb6c5a7	-0.08924418
41	0xbdc30b44	-0.09523633
42	0x3b364fc8	0.002781855
43	0x3ca4f461	0.02013606
44	0xbc27873c	-0.0102251135
45	0xbe731fca	-0.23742595
46	0xbe2d90ae	-0.16949722
47	0x3d4f02c8	0.05053976
48	0xbe8754c2	-0.26431853
49	0xbd806937	-0.06270068
50	0x3f4beda4	0.79659486
51	0x3f5b4bff	0.85662836
52	0x3df8f7b2	0.12156619
53	0x3d7407f5	0.0595779
54	0x3e1e5987	0.1546384
55	0xbda19aac	-0.078908294
56	0xbe2ee471	-0.17079331
57	0xbd8b3f80	-0.06799221
58	0xbd3483c9	-0.044070993
59	0x3c1e8e61	0.0096775
60	0x3e0c9713	0.13729505
61	0x3dba7d3b	0.09105917
62	0xbb235c38	-0.0024926793
63	0xbe66fe7e	-0.22558019
64	0x3de080cf	0.10962068
65	0xbe4fdf8a	-0.20300117
66	0x3da30da1	0.07961584
67	0x3ec5822d	0.3857588
68	0x3cb0aff9	0.021568285
69	0x3f104039	0.56347996
70	0x3e5fcd9d	0.21855779
71	0x3eb2395f	0.34809396
72	0x3e8f8fe7	0.28039476
73	0x3f3b39a1	0.7313481
74	0x3ec55ff9	0.38549784
75	0x3ec5c40c	0.38626134
76	0x3de1ab98	0.11019057
77	0x3e58dae9	0.21177258
78	0xbc69fc79	-0.014281386
79	0xbdb0cba6	-0.08632593
80	0xbdf265d5	-0.11835829
81	0x3de4a13b	0.11163565
82	0x3df5e54c	0.120066255
83	0xbe0f5dea	-0.14000669
84	0x3cc2bb20	0.023770869
85	0x3c232e7b	0.009959812
86	0xbd90cdc3	-0.07070496
87	0xbe0bb96f	-0.13644956
88	0x3d480b10	0.048838675
89	0xbd81043b	-0.06299635
90	0x3ed4dd1e	0.4157495
91	0x3bca9f74	0.006183559
92	0x3ec53222	0.3851481
93	0x3e25b82e	0.1618354
94	0xbe70115c	-0.23444122
95	0xbe84f335	-0.25966802
96	0x3d81deb6	0.06341307
97	0xbd49e048	-0.049286157
98	0x3e368c3e	0.17826936
99	0xbf01485b	-0.5050103
100	0xbd0dfa6b	-0.034662645
101	0xbe952e39	-0.29136828
102	0xbe4be6d5	-0.19912274
103	0xbe2c7576	-0.16841683
104	0xbe200013	-0.15625028
105	0xbb9392b5	-0.004503573
106	0xbe80764e	-0.2509026
107	0xbdf1cf74	-0.11807147
108	0x3e078015	0.13232453
109	0x3ec458b4	0.38348925
110	0xbd5be5fb	-0.053686123
111	0xbe574da7	-0.21025716
112	0xbc47edfc	-0.012202736
113	0x3d5300ed	0.051514555
114	0x3e399347	0.18122588
115	0xbe3a054a	-0.1816608
116	0xbe10e334	-0.14149171
117	0x3dac28c7	0.08406215
118	0x3e8ae0b1	0.2712455
119	0x3d456968	0.048196226
120	0x3df03fb2	0.11730899
121	0xbc7cfd1b	-0.015441204
122	0x3c84595a	0.016155887
123	0x3dad4af9	0.084615655
124	0x3bddb7ae	0.006766281
125	0xbe1e68b0	-0.15469623
126	0x3dc8b2d8	0.09799737
127	0xbe0ec74d	-0.13943215
128	0xbe62f753	-0.22164659
129	0xbedca413	-0.4309393
130	0xbe98a38e	-0.29812282
131	0xbf0f3312	-0.559373
132	0x3e273f27	0.16332684
133	0x3d5e641f	0.0542947
134	0x3e9052ae	0.2818808
135	0x3c6697a8	0.014074244
136	0x3eac57f8	0.33660865
137	0x3e685c0a	0.2269136
138	0x3e5a6261	0.21326591
139	0x3e8ea62a	0.27861148
140	0x3da35dd8	0.07976884
141	0x3d7f7c93	0.062374663
142	0x3df6f05c	0.12057564
143	0xbc5121e2	-0.012764426
144	0xbda7686e	-0.08174215
145	0x3d2771ed	0.040880132
146	0x3db119d4	0.086475044
147	0x3d47a875	0.048744638
148	0xbe25cc9f	-0.16191338
149	0xbe29c54b	-0.16579168
150	0xbdf3695f	-0.11885332
151	0xbda48184	-0.08032516
152	0x3ead86e7	0.33891985
153	0x3d4259e0	0.047448993
154	0x3e63802a	0.2221686
155	0x3e55d0f2	0.20880488
156	0xbe63cc82	-0.22245982
157	0xbeaa4584	-0.3325616
158	0xbcdbf2b8	-0.026849136
159	0xbd9707f6	-0.07374565
160	0x3e0bc280	0.13648415
161	0xbe2db08f	-0.16961883
162	0xbe776727	-0.24160443
163	0xbf3079f4	-0.68936086
164	0xbe1a9091	-0.1509421
165	0x3dffb313	0.124853276
166	0xbdb671b5	-0.08908407
167	0x3e375e34	0.1790703
168	0xbe0bceb3	-0.13653068
169	0x3e3b2850	0.18277097
170	0x3dc94537	0.09827655
171	0xbe50e80e	-0.20401022
172	0x3ec4ba35	0.38423315
173	0x3e4ceead	0.20012923
174	0xbedadabc	-0.42745006
175	0xbe74ecb9	-0.23918428
176	0x3dee8bac	0.11647734
177	0xbd77f0d9	-0.060532425
178	0x3deb59aa	0.114917114
179	0x3d029a97	0.03188571
180	0x3e397133	0.18109588
181	0xbc04a42a	-0.00809578
182	0x3e28817e	0.16455647
183	0x3d3fc6ba	0.04682038
184	0x3dbafa17	0.09129732
185	0x3dcc6778	0.099806726
186	0xbe16c5ff	-0.14723967
187	0x3d4ad0be	0.04951548
188	0xbe823468	-0.25430608
189	0x3e5ecbc2	0.21757415
190	0xbdac2f5a	-0.08407469
191	0x3f4b0769	0.7930818
192	0x3e2eed36	0.17082676
193	0x3f46c5f6	0.77645814
194	0xbef43286	-0.47694796
195	0xbe8b08a6	-0.27155036
196	0xbed41b97	-0.414273
197	0xbf0cd4f6	-0.5501245
198	0xbe080806	-0.1328431
199	0x3e84da8f	0.25947997
200	0x3e244053	0.16040163
201	0x3edf354d	0.43595353
202	0xbbc1dd69	-0.0059162867
203	0x3ca3d671	0.019999715
204	0xbd970724	-0.07374409
205	0x3e0ec553	0.1394246
206	0xbd004899	-0.031319235
207	0x3e28de66	0.16491088
208	0x3d3c1b04	0.0459242
209	0x3d6c8e16	0.05775269
210	0xbd4f9295	-0.0506769
211	0xbd98017a	-0.07422157
212	0x3c828888	0.015934244
213	0x3d0e5cc1	0.034756426
214	0x3ee3f3bc	0.44521892
215	0xbda79ecc	-0.08184585
216	0xbdbaa0fc	-0.091127366
217	0xbea14b44	-0.31502736
218	0x3e22d796	0.15902552
219	0x3d2bd6cb	0.04195289
220	0xbc156988	-0.009119399
221	0x3e539547	0.20662414
222	0xbe45b3b9	-0.1930684
223	0xbd9ccd93	-0.07656398
224	0xbebf9582	-0.37418753
225	0xbe91b21a	-0.28456193
226	0xbe0596dd	-0.13045831
227	0xbe2a9a9d	-0.16660543
228	0xbe4c29b2	-0.1993778
229	0xbec26431	-0.37967065
230	0xbe0de5ad	-0.13857146
231	0x3e289fd4	0.1646722
232	0x3c9f5811	0.019451173
233	0xbe8209a2	-0.25397974
234	0x3e6ea389	0.23304571
235	0x3d202f78	0.03910777
236	0xbd76959f	-0.060201284
237	0xbe22c5b5	-0.15895732
238	0xbd66ac42	-0.05631662
239	0x3d3dc3ce	0.046329312
240	0x3ddb6e52	0.10714401
241	0x3b77ed62	0.00378307
242	0xbcd334dc	-0.025782041
243	0xbc8b6d6b	-0.017019948
244	0x3d3f69f4	0.046731904
245	0xbd485cc0	-0.04891658
246	0x3d0af240	0.033922434
247	0xbdac5df1	-0.084163554
248	0xbe8f0411	-0.2793279
249	0xbdfec5ac	-0.12440047
250	0xbed35164	-0.41273034
251	0x3e1d9d82	0.15392116
252	0x3ead265c	0.33818328
253	0x3e91c908	0.28473687
254	0x3e96dc88	0.29465127
255	0x3ee7cc65	0.45273128

actor.0.bias f4 [64]
0	0xbca7c694	-0.020480432
1	0x3dd2f0b6	0.10299818
2	0x3d5c7d2e	0.05383032
3	0xbcd37033	-0.025810337
4	0xbd7c7c78	-0.06164214
5	0xbd314c35	-0.043285567
6	0x3db37c67	0.08763962
7	0xbcf981a3	-0.030457323
8	0x3dca3094	0.09872547
9	0xbd2c6790	-0.042090952
10	0x3a64ed6f	0.000873289
11	0xbde5ede9	-0.112270184
12	0x3dd15f9f	0.102233164
13	0x3d8528b1	0.06501902
14	0xbdb8d37e	-0.09024714
15	0x3dd27200	0.1027565
16	0xbdf68a9e	-0.12038158
17	0xbcdfa6f8	-0.027301297
18	0xbe0518cf	-0.12997745
19	0xbd9fdae0	-0.07805419
20	0xbe352776	-0.17690834
21	0xbd1d6f27	-0.03843608
22	0x3dcfdc47	0.101494364
23	0xbe0e3d58	-0.13890588
24	0xbc56fd75	-0.013121952
25	0x3e116d96	0.1420196
26	0x3d6a3a65	0.057184596
27	0x3d0d6ee5	0.034529585
28	0x3e1949a2	0.14969495
29	0xbd07ccbe	-0.03315424
30	0xbd39dbfc	-0.04537581
31	0x3e1b7237	0.15180288
32	0x3cd58eef	0.026069133
33	0xbd374576	-0.044743977
34	0x3e0e6ff3	0.13909893
35	0xbd9b8787	-0.07594209
36	0x3e417afe	0.18894574
37	0x3d8274d8	0.063699424
38	0xbc051af8	-0.008124106
39	0xbc9fc8db	-0.019504955
40	0x3e3d086c	0.18460244
41	0x3d2a11c0	0.041520834
42	0xbce1ff83	-0.027587658
43	0x3d428a2e	0.04749506
44	0x3dfb0d25	0.122583665
45	0x3dc764b7	0.09736007
46	0xbdddcc03	-0.10829928
47	0x3df4c711	0.119520314
48	0x3df1ce9b	0.11806985
49	0xbcdeb1a2	-0.027184311
50	0x3e054913	0.13016157
51	0xbe029175	-0.127508
52	0x3d94c2fb	0.07263752
53	0x3d60cfd0	0.054885685
54	0x3e368005	0.17822273
55	0xbd1587f4	-0.036506608
56	0x3de09e4c	0.10967693
57	0x3dc80e6f	0.09768378
58	0xbdc82d9e	-0.09774326
59	0x3d34a27e	0.044100277
60	0x3c1268c4	0.008936111
61	0xbe14dfdd	-0.14538522
62	0x3c0076d6	0.007840833
63	0x3d92e4b7	0.0717253

actor.2.weight f4 [64, 64]
0	0xbdbd60fb	-0.09247013
1	0xbe2dea35	-0.16983874
2	0x3d5e637e	0.054294102
3	0xbda77d9f	-0.08178257
4	0x3ca99333	0.020700073
5	0x3dd43a73	0.10362711
6	0xbcf63733	-0.030055618
7	0xbdabe21a	-0.08392735
8	0xbe029908	-0.1275369
9	0xbca33f15	-0.01992754
10	0xbdd757e0	-0.10514808
11	0x3c6f4aa5	0.014605199
12	0x3d10d3d2	0.035358258
13	0xbd17ea11	-0.037088457
14	0x3d9a55d4	0.07535902
15	0xbd854a52	-0.06508316
16	0xbd567f1b	-0.05236731
17	0xbd80c1ae	-0.062869415
18	0x3d1b5778	0.037925214
19	0xbd9ca6da	-0.07649012
20	0x3d1c94f1	0.03822798
21	0xbd4d7414	-0.05015953
22	0x3d688375	0.056765992
23	0xbdb02e17	-0.08602541
24	0xbd9a8dc0	-0.07546568
25	0xbd8209b8	-0.0634951
26	0xbde27569	-0.110575505
27	0x3b310755	0.0027012427
28	0xbdb98c23	-0.09059932
29	0x39499ed7	0.00019228026
30	0x3d42515e	0.04744088
31	0x3d083ad2	0.03325922
32	0xbd4d432c	-0.05011289
33	0x3cfa7167	0.030571653
34	0xbde33cfd	-0.11095617
35	0xbe162085	-0.14660843
36	0xbd402cf7	-0.04691788
37	0xbd98d5c0	-0.074626446
38	0xbdf006b8	-0.117200315
39	0x3beaaa62	0.0071614245
40	0x3dc604ab	0.09668859
41	0xbd8272ab	-0.063695274
42	0xbd730401	-0.05932999
43	0xbe04eb97	-0.12980495
44	0xbd1b4d6c	-0.037915632
45	0xbc26375c	-0.010145035
46	0xbb28bdc7	-0.0025747882
47	0x3d83b430	0.064308524
48	0xbdf05d0a	-0.11736496
49	0xbd53a90a	-0.05167488
50	0xbda69799	-0.08134384
51	0x3da7a913	0.08186545
52	0x3d62a6c6	0.05533483
53	0x3d868733	0.06568756
54	0x3d820b90	0.063498616
55	0x3d4ac7f0	0.04950708
56	0xbdbd4214	-0.09241119
57	0xbdf05169	-0.11734278
58	0x3cd8ac7f	0.02644944
59	0xbe13ae0d	-0.14421864
60	0x3d999892	0.074998036
61	0x3d5e9698	0.054342836
62	0xbcae487e	-0.021274801
63	0xbdf1041e	-0.117683634
64	0x3ebeb330	0.37246084
65	0x3ddce2b9	0.107854314
66	0xbdfcae21	-0.123379
67	0x3e0773ef	0.13227819
68	0xbdcda4c1	-0.1004119
69	0xbe06da03	-0.13169102
70	0x3e3aba71	0.18235184
71	0xbe327914	-0.17429
72	0x3e019fd2	0.12658623
73	0x3dc397e8	0.09550458
74	0x3e23e2ee	0.16004536
75	0x3ebbb707	0.36663076
76	0xbe76a970	-0.24088073
77	0xbe22e9f2	-0.15909556
78	0xbea18ee3	-0.31554326
79	0xbe751c35	-0.23936541
80	0xbe23a6fa	-0.15981665
81	0x3dec8b47	0.115500025
82	0x3d5166e5	0.05112352
83	0xbe017a04	-0.12644202
84	0xbc88bea1	-0.016692461
85	0x3edd6afe	0.4324569
86	0x3e81c6cd	0.25346985
87	0xbdf69d6e	-0.12041746
88	0x3e92f8fd	0.28705588
89	0x3dec3288	0.115330756
90	0x3cd22bb0	0.025655597
91	0x3e0af720	0.13570833
92	0xbdf738dc	-0.12071392
93	0x3e831459	0.25601462
94	0xbe330634	-0.17482835
95	0x3cb1b723	0.021693772
96	0x3c882a74	0.016621806
97	0xbdd02b45	-0.10164503
98	0xbe115319	-0.14191855
99	0x3e794059	0.24340953
100	0xbb32ed07	-0.0027301924
101	0xbdf8889b	-0.121354304
102	0x3d8a2908	0.06746107
103	0xbc0e7e99	-0.008697175
104	0xbe34c8f8	-0.17654788
105	0x3adeb4e5	0.0016991167
106	0xbd999f63	-0.07501104
107	0xbd437824	-0.047721997
108	0xbd6fdcf2	-0.05856032
109	0xbe38bc77	-0.18040644
110	0xbd9210e1	-0.07132126
111	0xbde1e4e2	-0.11029984
112	0xbd8380cd	-0.06421051
113	0x3d9bcdc7	0.07607608
114	0xbd4def62	-0.05027712
115	0x3df8a929	0.1214164
116	0xbe239e02	-0.15978244
117	0xbd8320b5	-0.06402723
118	0xbe7a7a9d	-0.24460836
119	0x3daff8a8	0.08592349
120	0x3d3821f9	0.044954274
121	0xbe377e4c	-0.17919272
122	0xbd94f1c5	-0.072726764
123	0x3e0849f3	0.1330946
124	0xbc51e775	-0.012811531
125	0x3d4dd7a6	0.050254487
126	0xbcf2d9a5	-0.029644797
127	0xbdb20d24	-0.086939126
128	0xbea7a488	-0.32742715
129	0xbcfcf402	-0.03087807
130	0x3e0834e6	0.13301429
131	0x3b82739d	0.0039810673
132	0x3e7ab47d	0.24482913
133	0x3ea4727f	0.32118604
134	0xbe45d6e8	-0.19320261
135	0x3bd5ed3c	0.0065285247
136	0x3e9a90c4	0.30188572
137	0x3ba13df4	0.0049207155
138	0xbd06ebbe	-0.032939665
139	0x3cea4304	0.028596409
140	0xbd956ecd	-0.07296524
141	0x3e873239	0.26405504
142	0x3e88b643	0.26701555
143	0x3d7f76e7	0.062369253
144	0x3d3518db	0.044213157
145	0x3e196098	0.14978254
146	0x3eb71776	0.35760087
147	0x3e9b5dd5	0.30345026
148	0xbe189292	-0.14899662
149	0xbe27c07b	-0.16382019
150	0xbd832104	-0.064027816
151	0x3e7fa73f	0.24966143
152	0xbe7accda	-0.24492207
153	0xbe29399f	-0.16525887
154	0x3e92d441	0.28677562
155	0x3cbb1ceb	0.022840938
156	0x3e9efec7	0.31053755
157	0xbdf554fc	-0.119791
158	0x3e8804c7	0.26566145
159	0x3e8746ad	0.2642111
160	0x3d8fb378	0.07016653
161	0x3e94c9d8	0.29060245
162	0xbe65df2a	-0.22448412
163	0xbd0291d5	-0.031877358
164	0xbe281308	-0.1641351
165	0x3d302e4a	0.043012895
166	0xbd4c3034	-0.049850658
167	0xbc173e0f	-0.0092311045
168	0x3e06e9ff	0.131752
169	0x3e5fadd7	0.21843658
170	0xbd9c1c49	-0.076225825
171	0xbdb93c88	-0.090447485
172	0xbc4691c5	-0.012119715
173	0xbd5b6769	-0.053565416
174	0xbc5e89aa	-0.013582626
175	0x3df1677e	0.11787318
176	0x3e69c881	0.22830392
177	0x3e82a776	0.25518388
178	0xbe2f87d1	-0.17141654
179	0x3db83c87	0.0899592
180	0xbb40af0d	-0.0029401213
181	0x3d26b0b7	0.040695872
182	0xbdf289a7	-0.11842661
183	0x3cde959d	0.02717095
184	0xbe41a1e8	-0.18909419
185	0x3e9d35c7	0.3070509
186	0x3e9e00ab	0.30859885
187	0x3e83aeb0	0.25719213
188	0xbb89a0e5	-0.0042000883
189	0x3d975261	0.073887594
190	0x3d943036	0.07235758
191	0xbe6796c2	-0.22616103
192	0xbd5251cb	-0.051347535
193	0x3eb3ebf9	0.3514097
194	0x3e90cae3	0.2827979
195	0xbba58a9a	-0.005051923
196	0xbe0660b0	-0.13122821
197	0x3e4c076e	0.19924709
198	0x3e98de4a	0.29857093
199	0x3e56ec16	0.20988497
200	0x3d3277bc	0.04357122
201	0x3e89ae80	0.26890945
202	0xbe1e064d	-0.15432091
203	0x3e1f555a	0.15559903
204	0xbe44920a	-0.19196334
205	0x3ea1b3e1	0.3158255
206	0x3e2b3aed	0.16721697
207	0xbe0d7e16	-0.13817629
208	0xbe06ab82	-0.13151363
209	0x3d280528	0.041020542
210	0x3dddbc49	0.10826928
211	0x3e4df7ba	0.20114031
212	0x3c2f7d5c	0.01071104
213	0xbdd1851b	-0.10230466
214	0x3d913d56	0.07091777
215	0x3c56d86b	0.0131131215
216	0x3e5bab35	0.21452029
217	0x3e25f820	0.16207933
218	0x3e8c577e	0.274105
219	0xbd310770	-0.043219984
220	0xbe3cce4d	-0.18438073
221	0xbd81df2e	-0.06341396
222	0x3bbc6b87	0.005750123
223	0x3c599eb9	0.013282471
224	0x3eb29c9c	0.34885108
225	0x3e17912d	0.14801474
226	0xbe8d00fc	-0.27539814
227	0x3dddd92c	0.10832438
228	0xbeb00c49	-0.34384373
229	0xbbdbbf1c	-0.0067061316
230	0x3ddab3c5	0.106788196
231	0x3d98992f	0.074510925
232	0xbde635dc	-0.112407416
233	0x3e007da0	0.12547922
234	0xbe93c4c7	-0.28861067
235	0xbe18f7de	-0.14938304
236	0x3de84526	0.11341314
237	0x3c76c6f9	0.015062087
238	0x3dc56400	0.09638214
239	0x3e074b55	0.1321233
240	0xbd93d3c3	-0.07218125
241	0x3e89c0f1	0.26905015
242	0xbdfdde88	-0.1239596
243	0xbdb86fb4	-0.09005681
244	0xbd94f00d	-0.072723486
245	0x3d1ae30c	0.037814185
246	0xbda1e7df	-0.07905554
247	0xbd058108	-0.032593757
248	0xbe594f68	-0.21221697
249	0x3d973770	0.07383621
250	0x3dfa0efa	0.12209888
251	0x3ddf37fd	0.10899351
252	0x3eaee158	0.341563
253	0xbc63acd8	-0.01389619
254	0x3e724a6c	0.23661202
255	0x3e5675d0	0.2094338

actor.2.bias f4 [64]
0	0xbdbd0e74	-0.09231272
1	0x3d241286	0.040056728
2	0x3d954e71	0.07290352
3	0xbde2835f	-0.11060213
4	0x3e23c9db	0.1599497
5	0x3e1a8b7b	0.1509227
6	0xbe1bff68	-0.15234149
7	0xbcb3a368	-0.021928504
8	0x3d8cfddb	0.068843566
9	0x3d69decf	0.057097252
10	0xbd9e4c55	-0.07729403
11	0x3d771ca2	0.06033004
12	0xbdfdc5a9	-0.12391216
13	0xbc035b72	-0.008017408
14	0x3d80b552	0.06284584
15	0x3d649106	0.055802368
16	0xbcc87521	-0.024469914
17	0x3dee03a3	0.116217874
18	0x3e0c6997	0.13712154
19	0x3d34f1f3	0.044176053
20	0xbdc808d9	-0.097673126
21	0x3d7e8705	0.062140483
22	0x3c8181d4	0.015808977
23	0x3d86fb5a	0.0659091
24	0x3e09f5a2	0.13472608
25	0x3d26fecf	0.04077035
26	0x3df45b60	0.11931491
27	0xbda0129c	-0.078160495
28	0xbda1ca1f	-0.0789988
29	0x3d98c1e7	0.07458859
30	0x3d114b39	0.03547213
31	0xbc6415d9	-0.0139212245
32	0xbd990e57	-0.07473438
33	0x3d001aa1	0.031275395
34	0xbd1d5b20	-0.03841698
35	0x3d056d77	0.032575097
36	0x3dcd0e7c	0.10012528
37	0xbbf0cf5a	-0.007348937
38	0x3de8c382	0.11365415
39	0xbd8d5c03	-0.069023155
40	0x3d8ef30a	0.0697995
41	0xbe214178	-0.1574763
42	0x3c694587	0.014237768
43	0xbda256c8	-0.079267085
44	0x3c4da466	0.012551403
45	0xbd4d2b18	-0.050089926
46	0xbd8a4c07	-0.06752782
47	0xbcc13889	-0.023586528
48	0x3b9a58fb	0.0047103143
49	0x3d834844	0.06410268
50	0x3dd302ab	0.10303243
51	0xbd6231db	-0.055223327
52	0xbd399b78	-0.045314282
53	0xbd2e968e	-0.04262405
54	0x3ace0e47	0.0015720808
55	0x3dbd57ab	0.09245237
56	0x3d71b374	0.05900903
57	0x3e087482	0.13325694
58	0x3dfd38b4	0.12364331
59	0x3d3c34c8	0.045948774
60	0xbd324673	-0.043524217
61	0xb992a0d1	-0.00027967108
62	0xbbb577f6	-0.005537982
63	0xbcdf7f5b	-0.027282408

actor.4.weight f4 [36, 64]
0	0x3b7a0a7f	0.0038153229
1	0x3ef1e6d8	0.47246432
2	0xbd1a6d29	-0.03770176
3	0xbe3c6618	-0.1839832
4	0xbf6f07f7	-0.9337153
5	0xbf5eadb2	-0.8698379
6	0x3c1f2db7	0.009715489
7	0x3eb89e44	0.36058247
8	0x3e8a03ae	0.26955932
9	0x3ebd3da3	0.36961088
10	0xbc54bbb4	-0.012984205
11	0x3ed590b5	0.41711965
12	0xbde44d8c	-0.111476034
13	0xbec104a4	-0.37698853
14	0x3d38a26c	0.045076773
15	0x3e5ef25c	0.2177214
16	0x3e998a20	0.29988194
17	0xbe254e31	-0.16143109
18	0x3e6433cd	0.22285385
19	0xbf0d0ed5	-0.55100757
20	0xbcb4fdad	-0.022093618
21	0x3d1f7d6c	0.03893797
22	0xbe0554d1	-0.13020636
23	0xbf2845de	-0.6573161
24	0xbed1dd9b	-0.40989384
25	0x3d1c87ea	0.038215555
26	0x3e7be788	0.24600041
27	0x3d18b680	0.03728342
28	0xbe38c008	-0.18042004
29	0xbf56eb2e	-0.83952606
30	0x3f05ed5f	0.52315325
31	0xbd43b039	-0.04777548
32	0xbec834cf	-0.3910279
33	0xbf2a1808	-0.6644292
34	0x3d19e35a	0.037570335
35	0xbcad333c	-0.021142595
36	0xbf05bd8e	-0.5224236
37	0xbdebea73	-0.11519327
38	0x3e2a6a8d	0.16642208
39	0x3db899c9	0.09013707
40	0xbd7e9fb7	-0.062164035
41	0x3cf70f64	0.030158706
42	0xbf57d805	-0.84313995
43	0xbdde9097	-0.10867422
44	0xbe23ed95	-0.16008599
45	0x3e177ca3	0.14793639
46	0xbc122412	-0.008919733
47	0xbc536322	-0.012902053
48	0xbb1f58ab	-0.0024314325
49	0x3ee1f4a6	0.44131964
50	0xbeb10989	-0.34577587
51	0xbf2316a4	-0.6370642
52	0xbd1140af	-0.035462078
53	0xbdcfbc6b	-0.1014336
54	0x3d322e07	0.043500926
55	0x3ed5bd20	0.41745853
56	0xbedbf3f0	-0.42959547
57	0xbf635bbd	-0.88811857
58	0xbf76319c	-0.9616945
59	0xbee7fab2	-0.45308453
60	0xbe2a7b60	-0.16648626
61	0xbd559ad9	-0.052149627
62	0x3df3350a	0.11875351
63	0xbd9e8ae9	-0.07741339
64	0xbda3ca48	-0.079975665
65	0x3e17dfdf	0.14831494
66	0x3e49aac2	0.19694045
67	0x3eb7124b	0.35756144
68	0xbe8fe48c	-0.28104055
69	0xbea2fcc0	-0.31833458
70	0x3cfa9fad	0.030593717
71	0xbdde61a3	-0.108584665
72	0xbf5c3e3f	-0.8603248
73	0x3e0a2a8e	0.13492796
74	0x3d9432aa	0.07236226
75	0x3e3aef2b	0.18255298
76	0x3dbff0a6	0.09372072
77	0xbf2c1c31	-0.67230517
78	0x3e5d64ef	0.21620534
79	0x3ded33bc	0.11582133
80	0xbf092831	-0.5357695
81	0x3e58b84e	0.21164057
82	0xbf5c87ec	-0.861449
83	0xbf2938c8	-0.66102266
84	0x3e86f285	0.26356903
85	0xbee81be2	-0.45333773
86	0xbd4484a8	-0.047978073
87	0xbee3e91b	-0.44513783
88	0xbe7ec160	-0.24878454
89	0x3d85c189	0.065310545
90	0xbf03d378	-0.5149455
91	0x3d095d3c	0.03353618
92	0x3ee1b75a	0.440852
93	0xbe77554d	-0.24153633
94	0xbeb8c156	-0.36085004
95	0xbf47edba	-0.78097117
96	0x3e6b87e9	0.23001064
97	0xbf1b9fb3	-0.60790557
98	0x3e089884	0.1333943
99	0xbd1b108e	-0.037857585
100	0x3dbf56c8	0.09342724
101	0x3e80db29	0.25167206
102	0x3ebf96dd	0.37419787
103	0xbdff0cb1	-0.124535926
104	0x3e934f61	0.287715
105	0xbd5f4729	-0.054511223
106	0xbf13f01b	-0.57788247
107	0xbc742130	-0.014900491
108	0x3de4c7ce	0.11170922
109	0x3d973f18	0.07385081
110	0xbde7dff9	-0.11322016
111	0x3c976e5d	0.018485243
112	0xbdf48185	-0.119387664
113	0x3e8015c3	0.25016603
114	0xbeaea2d0	-0.3410859
115	0xbf115566	-0.5677093
116	0x3e5d734d	0.21626015
117	0x3e42a117	0.19006763
118	0x3ea641b2	0.32471997
119	0xbd8c312a	-0.06845315
120	0xbdf82c49	-0.12117822
121	0xbe374b23	-0.17899756
122	0xbef625c0	-0.48075676
123	0x3eec883e	0.46197695
124	0x3eab08c7	0.33405134
125	0x3e94226a	0.28932506
126	0x3e09ad3d	0.13444991
127	0xbc357c7f	-0.011077045
128	0x3e059421	0.13044788
129	0x3e86a888	0.26300454
130	0x3e1ad291	0.15119387
131	0x3ec2402f	0.37939593
132	0xbf4eb5a1	-0.80745894
133	0x3decf6ec	0.11570534
134	0x3d12d95d	0.035851825
135	0xbf25a1c9	-0.6469999
136	0xbdc2c1f4	-0.0950965
137	0xbdd58600	-0.10425949
138	0x3d3eafcb	0.046554368
139	0x3eb5ec01	0.3553162
140	0x3ddb7021	0.10714746
141	0xbeec89c9	-0.46198872
142	0xbf06475b	-0.5245263
143	0x3d879d6b	0.06621822
144	0x3cee06bf	0.029055951
145	0x3e61fd1e	0.22069213
146	0xbe815c84	-0.25265896
147	0xbf476354	-0.7788594
148	0x3ecbe69d	0.3982438
149	0xbbf7fcda	-0.007567984
150	0xbd38b044	-0.045089975
151	0xbef8d414	-0.48599303
152	0xbe34fd70	-0.17674804
153	0x3d1f9c83	0.03896762
154	0xbf079a57	-0.5296988
155	0x3d0b5fca	0.0340269
156	0x3eedea7a	0.46467954
157	0xbef5495d	-0.47907534
158	0xbbd8e831	-0.0066194762
159	0xbf42664b	-0.75937337
160	0x3d351a1a	0.044214346
161	0xbf02c2d1	-0.51078516
162	0x3dab4408	0.08362585
163	0x3dcb24d7	0.09919136
164	0xbeb0c305	-0.34523788
165	0xbd0c447e	-0.034245007
166	0x3c9b6a50	0.018971592
167	0x3ccde807	0.025135053
168	0x3ed0b07a	0.4075964
169	0xbbf2b421	-0.007406727
170	0xbf256c8d	-0.6461876
171	0x3cc964ca	0.024584193
172	0xbdb3b301	-0.08774377
173	0xbe6d8f7f	-0.2319927
174	0x3f1a2816	0.60217416
175	0x3cc2813d	0.023743266
176	0x3e344f2b	0.17608325
177	0x3ed563d2	0.4167772
178	0xbed0b15c	-0.40760314
179	0xbdca1ad3	-0.098683976
180	0x3e64a0cd	0.22326966
181	0x3edada41	0.4274464
182	0xbe397564	-0.18111187
183	0x3e98a2aa	0.29811603
184	0xbf038663	-0.5137693
185	0xbf83027d	-1.0235134
186	0xbf74fb32	-0.95695794
187	0xbd74064e	-0.059576325
188	0x3edce984	0.43146908
189	0x3ea64414	0.32473814
190	0x3e00741b	0.1254429
191	0xbdf601c5	-0.12012056
192	0x3df80180	0.12109661
193	0xbdd38f07	-0.10330015
194	0xbe172512	-0.14760235
195	0x3e134cdd	0.1438479
196	0xbda28690	-0.07935822
197	0xbdc0136a	-0.09378703
198	0x3d455447	0.048176076
199	0xbe846aea	-0.2586282
200	0xbeee5792	-0.46551186
201	0x3d93af6d	0.07211194
202	0x3d9714f2	0.07377042
203	0xbc12320b	-0.008923064
204	0x3db14a32	0.0865673
205	0xbe3e5179	-0.18585767
206	0xbe7ba01e	-0.24572799
207	0x3b4bc7fe	0.0031094546
208	0xbe649438	-0.22322166
209	0xbdd13b60	-0.10216403
210	0xbed67277	-0.41884205
211	0xbe1637cb	-0.14669721
212	0x3caa166b	0.020762643
213	0xbd6334a0	-0.05547011
214	0xbcc6e9f4	-0.02428148
215	0x3c4ced16	0.012507698
216	0xbd82f737	-0.06394809
217	0xbdcb37bf	-0.09922742
218	0xbe24b2d5	-0.16083844
219	0x3c0cba26	0.008589303
220	0x3e802b04	0.25032818
221	0xbb8c011e	-0.004272594
222	0x3cd3aa5d	0.025838071
223	0xbf0aff96	-0.54296243
224	0x3ce95456	0.028482597
225	0xbe6a993c	-0.22910017
226	0xbd9891f4	-0.07449713
227	0xbd8f0acb	-0.069844805
228	0xbea2c650	-0.31791925
229	0x3c7a4e9a	0.015277529
230	0xbe2c9fe0	-0.16857862
231	0xbdc318d1	-0.09526218
232	0x3c792ae0	0.015207976
233	0x3dbe8051	0.09301818
234	0xbd678c18	-0.05653009
235	0xbd94f79e	-0.07273792
236	0xbd140c31	-0.03614444
237	0x3d2f1a26	0.042749546
238	0x3e84561c	0.25846946
239	0xbdd2e77c	-0.102980584
240	0xbe44562f	-0.19173501
241	0x3d36dc60	0.04464376
242	0xbe58f264	-0.21186215
243	0xbed05fea	-0.40698177
244	0x3d7a3ba4	0.061092034
245	0x3e040f98	0.12896574
246	0x3d9c41fd	0.07629774
247	0x3d204fea	0.039138712
248	0x3dc2aec1	0.09505988
249	0xbe86fbb2	-0.26363903
250	0xbe2bcd8c	-0.16777629
251	0xbcdd67b9	-0.027026998
252	0x3cc7054b	0.024294516
253	0x3e1171b4	0.1420353
254	0xbe25cbb4	-0.16190988
255	0xbd0624e8	-0.03275004

actor.4.bias f4 [36]
0	0xbe6beb6b	-0.23039024
1	0xbdc01a76	-0.09380047
2	0xbe377978	-0.1791743
3	0xbe81d996	-0.25361317
4	0x3e2db79b	0.16964571
5	0xbdc204fb	-0.09473606
6	0x3d82ce0e	0.06386958
7	0x3e24a4e6	0.16078529
8	0x3cd0aed2	0.025473986
9	0x3ca6dc07	0.02036859
10	0xbde9aed6	-0.114103004
11	0x3db1fca9	0.08690769
12	0x3d9af582	0.07566358
13	0x3e1d4a8b	0.15360467
14	0x3e3af486	0.18257341
15	0xbd40fee7	-0.047118094
16	0xbd9d1d4c	-0.076716036
17	0xbe2f1b32	-0.17100218
18	0xbcf8af9e	-0.030357178
19	0x3de93696	0.113873646
20	0xbe6f6976	-0.23380074
21	0x3d026481	0.03183413
22	0x3a586f18	0.00082563004
23	0xbe02299b	-0.12711184
24	0x3e5319cc	0.2061531
25	0x3e245839	0.1604928
26	0x3e219bdd	0.15782113
27	0xbd716610	-0.058935225
28	0xbd179a51	-0.037012402
29	0x3dadd111	0.08487142
30	0x3d5b5135	0.053544242
31	0xbd989342	-0.07449962
32	0x3d4e1536	0.050313197
33	0x3df46207	0.1193276
34	0x3dd85365	0.10562781
35	0x3e74c11b	0.23901789

critic.0.weight f4 [64, 62]
0	0x3d6a985f	0.05727422
1	0x3d8404d4	0.064462334
2	0xbdabd831	-0.083908446
3	0xbc00d2e3	-0.007862779
4	0xbd231ba0	-0.039821267
5	0xbc3a01f0	-0.011353001
6	0xbb906a20	-0.0044071823
7	0x3c85b84c	0.016323231
8	0xbd99bf73	-0.07507219
9	0xbca91594	-0.020640172
10	0xbd9f600f	-0.077819936
11	0xbd07c68c	-0.033148333
12	0xbda77acc	-0.081777185
13	0xbd87de16	-0.066341564
14	0xbd9ef4f9	-0.077615686
15	0xbd9fdb23	-0.07805469
16	0xbc091100	-0.0083658695
17	0xbddd20ac	-0.10797247
18	0xbdf7fe13	-0.12109008
19	0x3d9627d6	0.07331817
20	0xbdbb4a0c	-0.09144983
21	0x3db6177c	0.08891198
22	0x3c1010d0	0.008793071
23	0xbd0ad222	-0.033891805
24	0x3dc93eee	0.09826456
25	0xbdcb1727	-0.09916525
26	0x3d7934c0	0.060841322
27	0x3d89e605	0.06733326
28	0x3dcf7870	0.101303935
29	0xbdf2ddf7	-0.11858743
30	0x3bc53060	0.0060177296
31	0xbce712c7	-0.028207196
32	0xbdc0fbf2	-0.09423055
33	0x3db1a39a	0.08673783
34	0xbcb73250	-0.022362858
35	0x3d8c65af	0.06855332
36	0xbd8c0d16	-0.068384334
37	0xbd66b474	-0.056324437
38	0x3d876ee3	0.06612947
39	0x3c811a80	0.015759706
40	0x3d9510c4	0.072785884
41	0x3d5de968	0.05417767
42	0x3dad03fc	0.084480256
43	0xbdbfba3b	-0.093616925
44	0x3ceb1530	0.028696626
45	0x3dc12f62	0.09432866
46	0xbd6bb782	-0.057548054
47	0xbda285b0	-0.07935655
48	0x3dffed74	0.124964625
49	0xbdd9d0fe	-0.10635565
50	0xbdbce8a8	-0.09224063
51	0xbddc125c	-0.10745689
52	0x3c793706	0.0152108725
53	0x3c4dcf70	0.012561664
54	0xbe03e89e	-0.12881705
55	0x3d7679b4	0.06017466
56	0x3c9ea09e	0.019363698
57	0x3cd255e2	0.025675718
58	0xbe110f39	-0.14165963
59	0xbe08ad20	-0.13347292
60	0xbdf94c03	-0.12172701
61	0xbd8e3eda	-0.06945582
62	0xbdbbfea5	-0.09179429
63	0x3da00f28	0.07815391
64	0x3e0ab094	0.13543922
65	0x3a378f44	0.0007002244
66	0x3de23de2	0.110469595
67	0x3d14ecf1	0.036358777
68	0x3e900854	0.28131354
69	0x3b8c6011	0.004283913
70	0x3dac4eb0	0.08413446
71	0xbb313dbb	-0.002704485
72	0xbd66892a	-0.056283154
73	0x3e8f4200	0.27980042
74	0xbd046b90	-0.032329142
75	0x3e5d05ff	0.21584319
76	0x3e828334	0.25490725
77	0x3eaa9d13	0.33322963
78	0x3d6d080b	0.057869
79	0x3dfc2ac3	0.12312844
80	0x3d8b91c0	0.06814909
81	0xbc027883	-0.007963303
82	0xbd24fd14	-0.040280417
83	0xbd812d19	-0.0630743
84	0x3d88dae2	0.066823736
85	0xbd326ad0	-0.043558896
86	0xba1b68e0	-0.00059284084
87	0xbc1a0c49	-0.009402343
88	0x3da7fc16	0.082023785
89	0xbcc4cbf2	-0.02402303
90	0x3e556ac0	0.20841503
91	0x3f43fd3c	0.7655828
92	0x3ebb2df6	0.36558503
93	0x3f2433bc	0.6414144
94	0xbcca421e	-0.02468973
95	0xbe08b115	-0.13348801
96	0x3db6e9b6	0.089312956
97	0x3d4f2841	0.0505755
98	0x3d8bcaf1	0.068258174
99	0xbdf75741	-0.12077189
100	0x3e713b2e	0.23557732
101	0x3e83c784	0.25738156
102	0xbe408811	-0.18801905
103	0xbd3119c6	-0.04323747
104	0x3d076318	0.033053488
105	0x3e2b4d39	0.16728677
106	0x3bab902f	0.005235694
107	0xbe1abaa0	-0.15110254
108	0x3d18b5e3	0.037282836
109	0x3def61bd	0.11688564
110	0x3e09f07f	0.13470648
111	0xbe09966a	-0.13436285
112	0x3e34d1bd	0.17658134
113	0x3e22965a	0.15877667
114	0x3da0114d	0.078158
115	0xbe0dd89b	-0.1385216
116	0xbdc47092	-0.095917836
117	0xbc182234	-0.009285498
118	0x3e06a348	0.13148224
119	0x3d3514d8	0.04420933
120	0x3d8a250b	0.06745347
121	0x3d9934a8	0.074807465
122	0x3d0adfa6	0.033904694
123	0x3d9e576c	0.07731518
124	0xbddd902f	-0.108185165
125	0x3d5a969e	0.053366296
126	0x3d32681d	0.04355632
127	0xbb727cbd	-0.003700062
128	0xbd81591e	-0.06315826
129	0x3d061a5d	0.032739986
130	0xbe01a4c5	-0.12660511
131	0xbdd0c638	-0.10194057
132	0x3b5c54b9	0.0033619835
133	0xbca47b50	-0.020078331
134	0x3d9170d6	0.071016
135	0x3d790526	0.060795926
136	0x3c0232e0	0.0079467
137	0x3d981777	0.074263506
138	0xbd4fb3e2	-0.05070866
139	0xbdc3159c	-0.09525606
140	0xbc4dc3b2	-0.012558864
141	0xbda09dcb	-0.078425966
142	0x3df274de	0.11838697
143	0xbe1fa0c9	-0.15588678
144	0x3d73e4f2	0.05954451
145	0xbd8b811a	-0.068117335
146	0x3cbc58d0	0.022991568
147	0x3d8057ef	0.06266772
148	0xbd9249f7	-0.07143014
149	0xbd59a703	-0.05313779
150	0x3d5737c4	0.052543417
151	0xbd9cdb79	-0.076590486
152	0xbcd094f7	-0.025461657
153	0x3cae3383	0.021264797
154	0xbc97ad7e	-0.018515345
155	0x3d800e1d	0.06252692
156	0xba28c1e7	-0.0006437585
157	0x3dd8c78b	0.10584935
158	0x3c496a00	0.012293339
159	0xbe38f6b3	-0.18062858
160	0xbd0034c2	-0.031300314
161	0x3d03d0b0	0.03218144
162	0xbe1a1598	-0.150473
163	0x3dd0714f	0.10177862
164	0xbe085154	-0.13312274
165	0x3d246d46	0.040143274
166	0xbc1316f4	-0.00897764
167	0xbdb371fc	-0.08761975
168	0xbca53b87	-0.020169986
169	0xbbc46b98	-0.0059942715
170	0xbd1badec	-0.03800766
171	0xbd3edfea	-0.04660026
172	0xbdd60687	-0.10450464
173	0x3db22e5c	0.087002486
174	0xbdf5085a	-0.119644836
175	0x3ba68892	0.0050821984
176	0x3c8c4eb6	0.017127376
177	0x3be48a19	0.0069744703
178	0x3c12fd3e	0.00897151
179	0xbc1e3943	-0.009657207
180	0xbe085bfb	-0.13316338
181	0xbd70e074	-0.058807805
182	0xbdd29f61	-0.10284305
183	0x3d09d447	0.03364971
184	0xbc44c8da	-0.012010777
185	0xbd4aed3b	-0.049542647
186	0xbe249feb	-0.16076629
187	0xbe1aa7e6	-0.1510311
188	0xbde344c1	-0.11097098
189	0x3da2d9dd	0.079517104
190	0x3d3e0701	0.0463934
191	0xbe01f971	-0.1269281
192	0xbdfb076c	-0.12257275
193	0x3d3d1ac9	0.046168122
194	0x3c81e9fc	0.015858643
195	0xbdf22cb8	-0.11824936
196	0xbd190721	-0.037360314
197	0x3b57ea9b	0.0032946232
198	0x3ccd5704	0.025065906
199	0xbd2186a7	-0.039435055
200	0xbdc0057d	-0.09376047
201	0xbd9c2beb	-0.07625564
202	0xbd88672a	-0.06660302
203	0xbdc3212b	-0.09527811
204	0xbdabc982	-0.08388044
205	0x3dc7f852	0.0976416
206	0x3c91006f	0.017700402
207	0x3d2a7b7e	0.041621678
208	0xbdbd03d5	-0.092292465
209	0x3cfe8792	0.031070504
210	0x3ddbf6c2	0.10740425
211	0x3d6edc55	0.058315594
212	0xbbb60950	-0.0055553094
213	0xbd1d2f98	-0.038375467
214	0x3d77d5fe	0.060506813
215	0xbd9bddc6	-0.07610659
216	0xbd5a278f	-0.053260382
217	0xbb779b75	-0.0037781869
218	0xbe012dbc	-0.12615103
219	0xbd3a5082	-0.045486934
220	0xbcf4dd5c	-0.029890709
221	0xbde53da6	-0.11193399
222	0xbd878df5	-0.06618873
223	0xbc7c4659	-0.015397632
224	0xbe3720d4	-0.17883617
225	0xbcb73eca	-0.022368807
226	0xbd4a9186	-0.04945519
227	0xbddbd037	-0.10733073
228	0x3dff69c1	0.12471343
229	0x3d42abb3	0.047527026
230	0xbdde3cbc	-0.10851428
231	0xbdc3a456	-0.09552829
232	0xbd39e2dd	-0.04538237
233	0xbcd254c4	-0.025675185
234	0xbd840e7d	-0.06448076
235	0xbd8b491c	-0.06801054
236	0xbd55503c	-0.05207847
237	0xbe172cff	-0.14763258
238	0x3c806929	0.015675144
239	0xbd37129d	-0.044695485
240	0xbdf46249	-0.11932809
241	0xbd3ba716	-0.045813642
242	0xbdd8eb0c	-0.10591707
243	0xbd9f8508	-0.077890456
244	0xbe2031e4	-0.15644032
245	0xbe020328	-0.12696517
246	0xbde4a212	-0.11163725
247	0xbe12c395	-0.14332421
248	0x3d30b7cb	0.04314403
249	0x3dbeeb2c	0.09322199
250	0xbdeb4c0c	-0.11489114
251	0xbda47b56	-0.08031337
252	0x3a3f7a8c	0.00073043327
253	0xbddc4746	-0.10755782
254	0x3d8710d0	0.065950036
255	0x3db74ac3	0.089498065

critic.0.bias f4 [64]
0	0xbe0fd5b5	-0.14046367
1	0x3d3aab5a	0.04557357
2	0xbda94596	-0.082652256
3	0x3e844e83	0.2584115
4	0xbd9ce29a	-0.07660408
5	0xbbe07ad3	-0.0068505793
6	0x3b0a7fa7	0.0021133216
7	0xbd34cdee	-0.044141702
8	0xbe35e80a	-0.17764297
9	0xbc53be6c	-0.012923818
10	0xbd15a5e2	-0.03653515
11	0xbcb67cde	-0.022276338
12	0xbdccf6a0	-0.100079775
13	0xbde3f26c	-0.11130223
14	0xbd5ee424	-0.05441679
15	0xbb299fc7	-0.0025882588
16	0xbd852781	-0.065016754
17	0xba3c4e5a	-0.0007183306
18	0xbda367be	-0.079787716
19	0xbd8688e4	-0.065690786
20	0xbd1407f5	-0.0361404
21	0x3ddbd76d	0.107344486
22	0xbd73f017	-0.05955514
23	0x3d9aaa29	0.07551987
24	0x3b5c1976	0.0033584512
25	0xbdf46d72	-0.119349375
26	0xbe0a64c6	-0.13515005
27	0xbd1d69f3	-0.03843112
28	0xbd1b0aae	-0.03785198
29	0xbc5f01ca	-0.013611266
30	0xbd67eb0d	-0.056620646
31	0xbd7dfdd3	-0.062009644
32	0xbdcaae59	-0.098965354
33	0xbac1a5dc	-0.0014774161
34	0x3c4f7de7	0.012664295
35	0x3d5350b7	0.051590648
36	0x3ddbb0c2	0.10727073
37	0xbd5a902f	-0.05336016
38	0xbd4ae649	-0.049536023
39	0xbd2a7b8c	-0.04162173
40	0xbe06af71	-0.13152863
41	0xbd3a5793	-0.045493674
42	0xbded2203	-0.11578753
43	0xbe017559	-0.12642421
44	0xbe07d331	-0.13264157
45	0xbd58c51e	-0.05292236
46	0xbcf41c2f	-0.029798595
47	0xbce37ee4	-0.027770467
48	0x3ce4ff03	0.02795363
49	0xbd9cee8e	-0.07662688
50	0x3e2d5eeb	0.1693074
51	0xbe0d3d77	-0.13792978
52	0x3dfc675e	0.12324403
53	0xbdc702d6	-0.09717338
54	0x3bae0e4c	0.005311763
55	0xbd864384	-0.06555846
56	0x3d9683db	0.07349368
57	0xbcd7a4b2	-0.02632365
58	0xbe34a78c	-0.17642039
59	0xbdb9113a	-0.09036489
60	0x3ea02a64	0.3128234
61	0xbdef163a	-0.11674161
62	0xbdae697b	-0.085162126
63	0xbddda53c	-0.108225316

critic.2.weight f4 [64, 64]
0	0xbd0a6a2b	-0.033792656
1	0x3de869a5	0.11348275
2	0x3d21ea50	0.0395301
3	0xbcccd606	-0.025004398
4	0xbd1cb815	-0.03826149
5	0xbc49eb47	-0.012324161
6	0x3d503c96	0.05083903
7	0xbe2f49a3	-0.17117934
8	0xbdd3198e	-0.103076085
9	0xbec95609	-0.39323452
10	0xbe9fa3ca	-0.3117965
11	0x3e426f00	0.18987656
12	0xbd3f78d5	-0.046746094
13	0x3ea61b96	0.3244292
14	0xbdb8965d	-0.090130545
15	0x3e2c7a2f	0.16843484
16	0xbe806ecb	-0.25084528
17	0xbd19c0a6	-0.03753724
18	0xbbbf43a4	-0.005836921
19	0x3c613959	0.013746583
20	0x3d25b6b7	0.040457454
21	0x3d7e524f	0.062090214
22	0x3d8404f6	0.06446259
23	0xbe0fc597	-0.14040218
24	0x3ddfad3f	0.10921716
25	0xbd4c72f3	-0.04991431
26	0xbe000747	-0.12502776
27	0x3d87fe36	0.06640284
28	0xbcae19a9	-0.02125247
29	0x3e35b6c6	0.17745504
30	0xbd1fe79a	-0.03903923
31	0xbd8ba434	-0.06818429
32	0x3e24c4b2	0.16090658
33	0xbdc21a56	-0.094776794
34	0x3c69b9e5	0.014265512
35	0xbd3243b7	-0.04352161
36	0xbefe048a	-0.49612838
37	0x3d9cd56b	0.07657894
38	0xbe8199c0	-0.25312614
39	0xbe0f5288	-0.13996327
40	0xbd203718	-0.03911504
41	0xbe252656	-0.16127905
42	0x3e5c83ae	0.21534607
43	0xbdda626c	-0.10663304
44	0xbd8d7f84	-0.06909087
45	0x3e3090b1	0.17242695
46	0xbde9f408	-0.114234984
47	0xbdfb21e1	-0.12262321
48	0x3e8ad0fc	0.27112567
49	0x3d87e383	0.06635191
50	0xbe5195de	-0.20467326
51	0x3cfcac28	0.03084381
52	0xbede5cc4	-0.4343015
53	0x3c01c23a	0.007919842
54	0xbe972544	-0.2952062
55	0x3e8a917c	0.2706412
56	0x3e789247	0.2427455
57	0x3ecf172a	0.4044736
58	0xbd01bcdb	-0.031674247
59	0xbe48cfb9	-0.1961049
60	0xbda3a137	-0.07989734
61	0xbd7f88ce	-0.062386326
62	0x3e4fb728	0.20284712
63	0x3d302e7a	0.043013074
64	0x39837df4	0.0002508011
65	0xbc427b5e	-0.011870233
66	0xbc52df9a	-0.012870694
67	0xbc991f34	-0.018691637
68	0xbdbcb393	-0.092139386
69	0xbd833fe8	-0.064086735
70	0xbdc69b1f	-0.09697556
71	0x3de360c4	0.11102441
72	0xbd00dfc9	-0.03146342
73	0xbe00b259	-0.12568034
74	0xbdbb6f36	-0.09152071
75	0xbdca1d05	-0.09868816
76	0xbd37b172	-0.04484696
77	0xbd8e45cc	-0.069469064
78	0xbe070756	-0.13186392
79	0xbdadd5cf	-0.084880464
80	0x3dbd63cd	0.09247551
81	0xbe0e5c94	-0.13902503
82	0xbcda5fc4	-0.026656993
83	0x3df2ad22	0.11849429
84	0x3d6be018	0.05758676
85	0x3cf72595	0.030169288
86	0x3d820501	0.06348611
87	0xbd4ec904	-0.050484672
88	0xbda2d0ae	-0.07949959
89	0xbdc010de	-0.09378217
90	0xbdc1af36	-0.09457247
91	0x3d8cf919	0.06883449
92	0x3aae21ac	0.0013285181
93	0xbdfefe00	-0.124507904
94	0xbdc09967	-0.09404259
95	0xbd0ab671	-0.033865396
96	0xbb015c83	-0.001973898
97	0x3cca0866	0.024662208
98	0x3c7b5033	0.015338945
99	0xbca44ee1	-0.020057144
100	0xbcf88ccf	-0.03034058
101	0x3daea788	0.08528048
102	0x3d000769	0.031257067
103	0xbd6f134a	-0.058368005
104	0x3ddae508	0.106882155
105	0x3d800f97	0.062529735
106	0x3d151a4d	0.036402036
107	0x3d14dd0a	0.03634361
108	0x3ddf5c94	0.1090633
109	0xbd93387d	-0.07188509
110	0x3d2da541	0.042393927
111	0xbd6a7be9	-0.057247076
112	0xbd9d8ed3	-0.07693257
113	0xbbf4690e	-0.0074588126
114	0xbdc7d836	-0.09758036
115	0x3dbe86ef	0.0930308
116	0xbdd3a2e7	-0.103338055
117	0xbe1eaa22	-0.15494588
118	0x3bedc6eb	0.007256379
119	0x3d2899a3	0.041162144
120	0xbdbc1eb6	-0.09185545
121	0xbc9b28f3	-0.018940425
122	0x3d89934c	0.06717548
123	0xbddd3d2d	-0.10802684
124	0x3dbc9698	0.09208411
125	0x3d5aa649	0.053381238
126	0xbc4d59d5	-0.012533625
127	0xbac70536	-0.0015184048
128	0x3db48bb1	0.088157065
129	0xbd5ba61d	-0.053625215
130	0xbc6a06ec	-0.014283877
131	0xbd10bd29	-0.035336647
132	0xbde6b8d2	-0.112657204
133	0x3cf61891	0.030041011
134	0x3cf01189	0.029305236
135	0xbcf5ce05	-0.030005464
136	0xbe068b68	-0.13139117
137	0xbd05fe22	-0.032713063
138	0xbd956ca5	-0.07296113
139	0xbe2373e3	-0.15962176
140	0x3cdf82d5	0.027284065
141	0x3d5119bf	0.051049944
142	0x3e05637c	0.13026232
143	0xbc9555bc	-0.018229358
144	0xbe8b6d63	-0.27231893
145	0x3ca1d507	0.0197549
146	0xbc85891c	-0.01630073
147	0xbd4a1540	-0.04933667
148	0xbd35070b	-0.04419617
149	0x3d1c390c	0.03814034
150	0x3df3c47f	0.11902713
151	0x3dfdba4d	0.1238905
152	0xbc84c58d	-0.01620748
153	0x3d84c909	0.06483657
154	0x3c7744ee	0.015092118
155	0xbd037c1f	-0.032100793
156	0x3d18f843	0.037346136
157	0xbe1560e2	-0.14587739
158	0x3ce8ec8e	0.02843311
159	0xbdebb0fc	-0.115083665
160	0x3d9775d9	0.073955245
161	0xbce6d633	-0.02817831
162	0x3db3f42b	0.08786806
163	0xbcbe6e2d	-0.023245895
164	0xbd3f24b6	-0.04666587
165	0xbbc34943	-0.005959661
166	0xbe0c923e	-0.13727662
167	0xbd3b87a2	-0.045783646
168	0x3d92dd18	0.071710765
169	0xbd40b889	-0.047050986
170	0x3c19367f	0.009351372
171	0xbde1ce9f	-0.11025738
172	0x3cc36e0d	0.023856187
173	0xbe2474df	-0.16060208
174	0xbd944a39	-0.07240719
175	0x3e03ecbd	0.12883277
176	0x3e113a2b	0.14182346
177	0xbd1c1dcf	-0.038114365
178	0x3bcfd008	0.006341938
179	0x3dcd6554	0.100290924
180	0xbd5022f3	-0.05081458
181	0x3cdf88e3	0.027286952
182	0x3b5db84a	0.0033831769
183	0x3dfdd037	0.123932295
184	0xbdcffb50	-0.10155356
185	0xbd709785	-0.05873825
186	0xbda4e4fb	-0.08051487
187	0xbe366911	-0.17813517
188	0xbe06d1bd	-0.13165946
189	0xbdc26724	-0.09492329
190	0x3d227400	0.039661407
191	0x3d712546	0.058873437
192	0x3bd12e40	0.0063836873
193	0xbdb79046	-0.08963065
194	0xbda054bd	-0.078286625
195	0xbe5ce207	-0.21570598
196	0xbd570e78	-0.052504033
197	0xbd1238e9	-0.035698805
198	0x3c823467	0.015894128
199	0x3cacea58	0.021107838
200	0xbe0d1d06	-0.13780603
201	0xbe2a1c57	-0.16612373
202	0xbd922844	-0.07136586
203	0xbdcfe1cd	-0.1015049
204	0x3d7942a4	0.06085457
205	0xbdc11fd0	-0.09429896
206	0x3d7ed356	0.062213264
207	0x3e08a91f	0.13345765
208	0x3d9552e9	0.072912045
209	0xbdefd58d	-0.117106535
210	0xbe0982a0	-0.13428736
211	0xbd10f08c	-0.035385653
212	0xbda044c8	-0.07825619
213	0x3e3161de	0.1732249
214	0xbde74c59	-0.11293859
215	0xba9c24f9	-0.0011912874
216	0x3e30179f	0.1719651
217	0xbdab9697	-0.08378332
218	0x3cb0ee68	0.021598056
219	0x3dcc1b1a	0.09966107
220	0x3dc4ada6	0.09603433
221	0xbe0085c3	-0.12551026
222	0x3dca4996	0.09877317
223	0xbdc8c6a3	-0.09803512
224	0x3d0ff7ee	0.035148554
225	0x3e04838b	0.12940805
226	0xbd94f3b6	-0.07273047
227	0xbed86beb	-0.42269835
228	0xbde06f8a	-0.109587744
229	0xbe40f7c0	-0.18844509
230	0xbe18c6a9	-0.14919533
231	0xbcd8fe9d	-0.026488597
232	0xbd86e23c	-0.065861195
233	0x3d561ba8	0.05227247
234	0xbe1b9e55	-0.15197118
235	0x3d2e1a31	0.042505447
236	0xbe36f5de	-0.17867228
237	0x3e06c845	0.13162334
238	0xbe96cec2	-0.2945462
239	0xbda25dd3	-0.07928052
240	0xbd27f5de	-0.04100596
241	0x3c2dec06	0.010615354
242	0xbe1669d8	-0.14688814
243	0xbe331fda	-0.17492619
244	0x3c280366	0.0102547165
245	0xbe121149	-0.14264406
246	0xbe6442ef	-0.22291158
247	0x3e2759a3	0.16342787
248	0xbe48dbc1	-0.1961508
249	0x3e91dcca	0.2848876
250	0xbddfc8ca	-0.10926969
251	0xbda14bc2	-0.07875778
252	0xbe53d9ab	-0.20688502
253	0xbe5f6357	-0.21815239
254	0x3da5da06	0.08098225
255	0xbc398fd0	-0.0113257915

critic.2.bias f4 [64]
0	0x3d5f23fa	0.05447767
1	0xbd7e36dd	-0.06206404
2	0xbd9bc1f2	-0.076053515
3	0xbe24cd25	-0.16093881
4	0xbddde5d9	-0.108348556
5	0x3bad4596	0.0052878363
6	0xbd972a1c	-0.073810786
7	0xbe04553f	-0.12923144
8	0xbe13ac01	-0.14421083
9	0xbb8d9145	-0.004320296
10	0xbd19b06f	-0.037521776
11	0x3d816ed7	0.06319969
12	0xbbd7e1c3	-0.006588192
13	0x3e37efa1	0.17962505
14	0xbe062da3	-0.13103347
15	0xbca03227	-0.019555165
16	0xbc48bad4	-0.012251575
17	0xbdf90baa	-0.12160428
18	0xbc10432c	-0.0088050775
19	0xbd7ac231	-0.06122035
20	0xbcb9468e	-0.02261665
21	0x3c347ee1	0.011016578
22	0x3ccfc7b4	0.02536378
23	0xbd94c146	-0.072634265
24	0x3d3cffc7	0.046142366
25	0xbded9f55	-0.11602656
26	0xbc254e93	-0.010089534
27	0xbd89da5c	-0.06731102
28	0x3a431185	0.000744127
29	0x3b3f0ea3	0.0029153011
30	0xbdbf7dc7	-0.09350162
31	0xbdaf1365	-0.08548621
32	0xbd81a2a5	-0.0632985
33	0xbe437f73	-0.19091587
34	0x3ce6432c	0.028108202
35	0xbc8b9edb	-0.017043522
36	0xbd7afd1a	-0.061276533
37	0xbd5417e1	-0.051780585
38	0xbdd4b834	-0.103866965
39	0xbd703fcf	-0.058654603
40	0x3c7133db	0.014721836
41	0x3e172ae4	0.14762455
42	0xbd2fd676	-0.042929135
43	0xbd13e921	-0.036111
44	0xbdc4ba22	-0.096058145
45	0x3dee788c	0.11644086
46	0xbe3b996b	-0.18320243
47	0xbd7be59c	-0.06149827
48	0xbc1cb0d6	-0.009563645
49	0x3c10e8a3	0.008844527
50	0x3da950f9	0.082673974
51	0xbdecbb2e	-0.11559139
52	0xbdad6984	-0.08467391
53	0xbe0a332b	-0.13496082
54	0x3db9c3fe	0.09070586
55	0xbd0d7bca	-0.034541883
56	0xbdba5bd0	-0.09099543
57	0x3e285e53	0.16442232
58	0xbc900246	-0.017579209
59	0x3c297c7c	0.010344621
60	0xbdd21078	-0.102570474
61	0xbd3ec7d5	-0.046577293
62	0xbe10932e	-0.14118645
63	0xbde88fe7	-0.11355572

critic.4.weight f4 [1, 64]
0	0xbe989f3f	-0.29808995
1	0x3cc7d83a	0.024395097
2	0x3b56ea8a	0.0032793605
3	0x3cb9178b	0.022594234
4	0xbdc705f8	-0.09717935
5	0xbdfedf25	-0.12444905
6	0xbd4ed027	-0.05049148
7	0x3d2ba69b	0.041906934
8	0x3c45b208	0.012066372
9	0xbd9e5046	-0.07730155
10	0x3c99f75f	0.018794714
11	0x3cbced5c	0.0230624
12	0x3dde7e48	0.1086393
13	0x3d318382	0.043338306
14	0x3b8b9042	0.00425914
15	0x3ba7b3e2	0.0051178792
16	0xbea50970	-0.32233763
17	0xbbd08045	-0.006362947
18	0x3cc81f89	0.0244291
19	0xbd023880	-0.031792164
20	0x3c81da2e	0.015851106
21	0xbbbdbe77	-0.0057905274
22	0xbe05289e	-0.13003775
23	0x3c54bf4b	0.012985061
24	0x3c4d8415	0.012543698
25	0xbca28ea9	-0.019843416
26	0xbe395fa8	-0.18102896
27	0xbea59016	-0.3233649
28	0x3cd88fba	0.026435722
29	0xbc2da88f	-0.0105992695
30	0xbd21e33e	-0.039523356
31	0xba5a9cfd	-0.0008339433
32	0xbb354540	-0.0027659684
33	0xbc8fcd8c	-0.017554067
34	0xbd2d2af8	-0.042277306
35	0x3b8ca32c	0.0042919125
36	0x3c29a80f	0.01035501
37	0xbe9f1b74	-0.31075633
38	0xbe070f73	-0.13189487
39	0xbc1a57a6	-0.009420311
40	0x37d856f8	2.5789705e-05
41	0x3dbe0440	0.092781544
42	0x3b6643fc	0.0035135737
43	0xbdaa1240	-0.08304262
44	0xbd3cb76f	-0.046073373
45	0xbc7ee3b2	-0.0155572165
46	0x3d356d18	0.044293493
47	0x3c3f94be	0.011693178
48	0xbd7a0005	-0.061035175
49	0xbc990295	-0.018677989
50	0xbdc81c2c	-0.09770998
51	0x3beab8e7	0.0071631554
52	0x3ca2be5d	0.019866163
53	0xbda45622	-0.08024241
54	0xbe83cd85	-0.25742736
55	0x3b7b32dd	0.0038329877
56	0xbbbba523	-0.005726473
57	0xbe2ec085	-0.17065628
58	0xbcf22aca	-0.029561419
59	0xbea9e706	-0.3318407
60	0xbd366dd0	-0.04453832
61	0x3dae9920	0.085253
62	0xbbbb7376	-0.005720551
63	0xbda8b340	-0.08237314
