Models/bline/model.pth (torch, 78785 bytes, 11 tensors)

actor.0.weight f4 [64, 62]
000000 00 41 79 ba e8 86 8b 3d 2a 12 d6 bd 3c 6a bf bd
       -0.0009508282 0.06812841 -0.10452683 -0.093464345
000010 2a 7e 9c be 07 a2 1d 3f 4b de c1 3e aa 87 1d 3f
       -0.30565006 0.6157536 0.3786491 0.6153513
000020 52 8b ed bd 68 89 64 be 31 63 68 be 9f f9 07 bf
       -0.11598839 -0.22318041 -0.22694089 -0.53115267
000030 56 a4 fe bd 59 a2 75 bd eb da b4 be 12 0c 88 be
       -0.12433688 -0.05996928 -0.3532327 -0.2657171
000040 80 a6 4d 3d 4e 10 9c 3d 76 54 b0 bd 46 86 62 bd
       0.050207615 0.07620297 -0.0860986 -0.055303834
000050 5c f1 3c 3d 16 fb d7 3d 84 1c d6 bc 12 a2 c2 3d
       0.046128616 0.10545938 -0.026136644 0.09503569
000060 58 b1 a7 bc c0 2c 5c 3c ce 82 eb 3d 99 48 f1 bd
       -0.020470306 0.013438404 0.114995584 -0.11781425
000070 fa b4 07 bf ba e6 6c bd b7 70 0b bd a1 83 21 3e
       -0.53010523 -0.057837225 -0.03404304 0.15772869
000080 cf 96 a8 bd 32 76 6f bd ba b6 b5 bd 94 98 f3 bd
       -0.082318895 -0.05846233 -0.08872743 -0.11894336
000090 98 f7 10 be 52 82 8a bc d9 0c 42 3d b9 7e 1b bd
       -0.1415695 -0.016907845 0.047375534 -0.03796265
0000a0 e1 c9 80 bd 15 26 88 be fe 07 91 bc 61 81 96 bd
       -0.06288505 -0.26591554 -0.017704006 -0.07348896
0000b0 e1 70 9d be 35 a0 f0 3d ee e9 c8 3d 98 71 e0 bd
       -0.30750182 0.11749307 0.098102435 -0.10959166
0000c0 99 7d 8d be bd 77 a4 3d 9a 36 1c be 4d 8b ca 3e
       -0.27634886 0.08030651 -0.15255204 0.39559403
0000d0 84 74 4e 3d 4c 42 48 bd f9 90 df 3c 0d e4 95 3d
       0.050404087 -0.04889135 0.027290808 0.07318888
0000e0 12 13 17 3e 70 a7 c9 bd 73 39 ed bd 9c b8 b1 bd
       0.14753368 -0.09846389 -0.11583223 -0.086777896
0000f0 ff 74 1e 3d ab 20 a0 3e 94 11 9a bd 64 27 1d 3d
       0.038685795 0.31274924 -0.07522884 0.038367644
000100 1a c9 8e 3d 8c 50 83 bc d2 25 a1 bd 49 5a 3c 3e
       0.06971951 -0.016029619 -0.07868542 0.18393816
000110 c1 91 c1 bc 77 33 f9 3d 96 32 01 3e c7 f1 c9 3e
       -0.023629071 0.12168019 0.12616953 0.39442274
000120 12 70 8f 3e 55 24 36 3f ff 4c 04 3f 74 74 95 3e
       0.2801519 0.7114919 0.51679987 0.2919041
000130 be 60 d5 bd 4c e6 47 be 50 6a 3f 3c b5 b7 a2 bd
       -0.10418843 -0.19521445 0.011683062 -0.079451956
000140 d5 65 f2 bd f4 17 e7 3d 48 c4 c5 3d 05 ba 01 be
       -0.11835829 0.112838656 0.09656578 -0.12668617
000150 20 bb c2 3c 64 43 af bc fc 34 ab bc 28 1f 6e bd
       0.023770869 -0.021394439 -0.020899288 -0.05813518
000160 10 0b 48 3d 51 0e 9a bd cb 76 35 be ad 80 a4 3e
       0.048838675 -0.07522262 -0.17721097 0.32129422
000170 1f f1 16 3e 77 95 af 3e 95 b6 00 be 40 b9 a8 bd
       0.14740418 0.3429372 -0.1256965 -0.08238459
000180 b6 de 81 3d 08 c1 d9 3c f7 cb 88 be 11 38 0c be
       0.06341307 0.026581302 -0.26718113 -0.13693263
000190 36 dc 30 3e 7c f5 82 bd 0d b4 8e be de 64 72 be
       0.17271504 -0.06394479 -0.27871743 -0.2367129
0001a0 22 ca 4f 3d 28 eb 0d 3e 6b b5 1d bf 9c ad cd 3e
       0.05072988 0.13859236 -0.61604947 0.40171516
0001b0 34 2b 55 be 9d 4b 96 3e 1b 6f c0 be b2 36 eb 3e
       -0.20817262 0.29354563 -0.37584767 0.45940167
0001c0 9d fa 92 3d df 45 bf 3e 72 3e b2 3d 3e 0a 1b bf
       0.07176707 0.37357995 0.08703317 -0.60562503
0001d0 21 0a 1f be 11 bd 7c 3d 5f 23 54 bd a8 c0 f6 3c
       -0.15531208 0.061703745 -0.051791545 0.030121163
0001e0 d0 33 05 bd 11 81 10 3e 5c 37 82 3e d2 d3 7a 3e
       -0.032520115 0.14111735 0.2543286 0.24494866
0001f0 3e 7f f9 bd 2a 29 9a bd 40 38 02 bd 8a 64 7d bd
       -0.12182473 -0.07527383 -0.031791925 -0.06186346
000200 c3 82 89 be 4b 86 bc be c6 12 8d be 6a 53 c6 be
       -0.26857576 -0.36821207 -0.27553385 -0.38735515
000210 e6 6e 08 3e ee 8d a7 be af 58 05 bd 3e d4 c6 be
       0.13323554 -0.3272547 -0.03255528 -0.38833803
000220 88 fc 9c be 8e 3b 4a 3e b5 da e1 bb 28 e4 51 bd
       -0.30661416 0.19749281 -0.006892527 -0.051242977
000230 0c 60 f6 3d f8 2c a5 3d 5c f0 f6 3d 18 7c 16 bc
       0.12030038 0.08065218 0.12057564 -0.00918486
000240 6a a6 e9 bd 86 9c 76 bd d4 19 b1 3d 00 d1 57 ba
       -0.11408694 -0.060207866 0.086475044 -0.00082327425
000250 a7 47 81 bd 98 50 c7 bd 5f 69 f3 bd fc 85 db bd
       -0.06312495 -0.09732169 -0.11885332 -0.10718915
000260 d6 1b 87 be 5d 6f 49 bd 5c 6b 08 be 4c 21 84 be
       -0.26388425 -0.04917847 -0.13322204 -0.25806653
000270 4e 3e a2 3d 1c 87 cb bd b8 f2 db bc 80 ec 52 bd
       0.0792204 -0.099378794 -0.026849136 -0.051495075
000280 dd 60 0e 3e 0e fe 38 bd 63 63 c3 bd 1b 50 db bd
       0.13904138 -0.04516416 -0.09540441 -0.10708638
000290 27 85 14 3e 37 bd c6 bd 30 d4 6a 3c 35 aa 28 bb
       0.14503919 -0.097040586 0.014332816 -0.0025736217
0002a0 42 dd e2 3d 5a 3e b9 3e c0 88 09 3e 98 64 96 3d
       0.11077358 0.36180383 0.13431072 0.073434055
0002b0 9f 09 df bd 67 a0 6c 3d 78 4e 5d be ab 45 a1 bd
       -0.10890507 0.05777016 -0.21611965 -0.07874616
0002c0 00 1c 70 bc d5 08 d0 bd 5d 21 8b 3e 7f 3c 5b be
       -0.014655113 -0.101579346 0.27173892 -0.21409796
0002d0 bf e6 af 3d f4 d2 d9 bc 65 6f 74 3d 35 de a2 3d
       0.08588933 -0.026589848 0.059676547 0.07952539
0002e0 8a 3c b0 3e 36 8f 23 3d b0 2f fa bc 74 cc da bc
       0.34421188 0.0399315 -0.030540317 -0.026708819
0002f0 2a 57 d6 bd 80 ee 8c 3d 5e 78 cc bc be a6 de 3e
       -0.10465844 0.06881428 -0.02495974 0.4348659
000300 ed 18 91 3e c7 80 bd 3e ce bd 28 be a8 d2 a5 bd
       0.2833933 0.37012312 -0.16478655 -0.0809682
000310 6f 8e 8c be d6 96 43 be f2 e8 e8 be 9d 09 4b be
       -0.27452418 -0.19100508 -0.45490223 -0.19827886
000320 f2 f1 c8 3d e7 de c1 3e aa 9c c4 bd 2c 8f b2 bd
       0.098117724 0.37865373 -0.09600194 -0.08718714
000330 24 07 97 bd d0 0c b6 3d b2 fd 3a bd 64 63 db 3d
       -0.07374409 0.088891625 -0.0456521 0.10712317
000340 04 1b 3c 3d 68 bd 83 3c 00 d4 77 ba 38 aa cd bc
       0.0459242 0.016081527 -0.00094538927 -0.02510558
000350 88 88 82 3c 00 91 ed bc 0b e2 7c 3e b9 bc 7d be
       0.015934244 -0.028999805 0.24695604 -0.24779023
000360 01 8c 50 be 9b be 87 be 9e 06 d2 3d 8b 14 d3 bd
       -0.20365907 -0.26512608 0.102551684 -0.10306653
000370 88 69 15 bc 0e a6 00 3e fd 8f e7 3c e5 1a 0e be
       -0.009119399 0.12563345 0.028266901 -0.13877447
000380 7d 69 a3 be 05 f9 f6 bd 6f db 15 3e 89 ae 19 3f
       -0.3191642 -0.120592155 0.14634489 0.60031945
000390 f7 f4 0c 3e b5 59 be 3e db 9b 10 be fd 67 fd bd
       0.13765322 0.37177816 -0.14121954 -0.1237335
0003a0 16 c7 9e 3d da d4 3a bc 2a f9 dd bd 40 a1 b8 be
       0.077528164 -0.011403287 -0.1083854 -0.36060524
0003b0 ea 5f a5 be e7 d0 78 bd 7e 78 5c bd 44 14 b3 3b
       -0.3229974 -0.0607461 -0.053825848 0.0054650623
0003c0 6e 54 a2 3d f7 92 76 3d d6 4a cf bc 00 30 55 39
       0.0792626 0.06019875 -0.02530424 0.00020331144
0003d0 19 c6 f4 bd c2 ac b9 3d a7 81 b4 bd c7 d5 ef bd
       -0.11951847 0.09066154 -0.08813792 -0.11710697
0003e0 00 6d e5 3a 04 e2 b0 bc 54 fc 88 bd 40 82 89 3c
       0.0017503798 -0.021592148 -0.06688753 0.01678574
0003f0 c3 8c 3c 3e 43 2d 0b 3f 28 04 88 3d 4b 32 c0 3e
       0.18413071 0.5436594 0.06641418 0.3753837

actor.0.bias f4 [64]
000000 a1 f2 68 bd 29 44 34 bc f7 3f 44 bc de 6a ac bc
       -0.056872014 -0.011002579 -0.011978141 -0.021047052
000010 02 22 51 bd 5e 15 1e be 99 c8 71 3d 41 ed d1 bd
       -0.051057823 -0.15437838 0.059029195 -0.10250331
000020 2a 83 17 3e 3a e5 58 bd 38 bf e5 3c 1d 87 b5 bd
       0.14796129 -0.052952982 0.028045282 -0.088636614
000030 67 fd 9a 3d e1 da c8 3d 63 b8 4c be 66 29 91 bd
       0.07567864 0.09807373 -0.19992213 -0.07087974
000040 84 a3 b2 bc 16 28 1d 3b c3 eb 3a be eb fa 20 be
       -0.021806486 0.0023980192 -0.18253998 -0.15720718
000050 47 32 b7 bb 1d f5 96 bd 16 2c 20 3e 9d 23 81 3d
       -0.0055907103 -0.073709704 0.15641817 0.06305621
000060 c2 8c 6b bd a3 7c 19 3d 3e 87 fa bb 69 74 ee bb
       -0.057507284 0.03747238 -0.0076455167 -0.0072770608
000070 d9 73 d7 3d 7f a7 a0 bd 8f e2 fd bd 60 1b 35 3e
       0.10520143 -0.07844447 -0.12396728 0.17686224
000080 73 6d 53 be 5e c8 d7 3b 85 66 f0 bc 38 60 05 be
       -0.2064722 0.006585165 -0.02934576 -0.13024986
000090 01 54 76 3d 4c 65 30 bd 1e e5 0e be 52 aa 8d bc
       0.060138706 -0.043065354 -0.13954589 -0.01729313
0000a0 61 1d 5f 39 07 e0 1e be 78 2e c8 bd fb 23 60 bd
       0.00021277882 -0.15515147 -0.09774488 -0.054721814
0000b0 bb d4 ce 3d e8 25 37 3d 39 20 ca bb dc 04 8e 3d
       0.10099169 0.044713885 -0.006168392 0.069345206
0000c0 fd 15 3d 3e be 04 d6 bd 22 e1 77 bd ac 03 5f be
       0.18465419 -0.10450123 -0.060517438 -0.21778744
0000d0 dd 39 91 bd d8 5e 55 bc c6 dc 55 3b 55 72 a3 bd
       -0.07091115 -0.013023101 0.0032632812 -0.079807915
0000e0 dc da 28 bd 2e d7 b5 bd 9c 5c 38 be 06 37 aa 3d
       -0.041224346 -0.08878933 -0.18004078 0.08311276
0000f0 66 da 09 be 54 53 04 be 16 3b d0 bc cb e6 8f bb
       -0.13462219 -0.12922412 -0.0254188 -0.0043915263

actor.2.weight f4 [64, 64]
000000 48 2f e3 bb 76 06 8a be 70 1c f7 bc f9 23 a3 3d
       -0.0069331266 -0.26958054 -0.030164927 0.079658456
000010 f8 ab 8a 3e 22 d2 98 3e d8 8a 8a 3d 78 d1 7d bd
       0.27084327 0.2984782 0.067647636 -0.061967343
000020 a8 88 60 bd 88 48 3f be 2e 3a 8c bc 5f 74 6a 3e
       -0.054817826 -0.18680012 -0.017117586 0.22895955
000030 86 47 0a bd b9 c8 5e be b4 ec c6 3e 9a 46 f8 bd
       -0.033759616 -0.21756257 0.38852465 -0.12122841
000040 b9 80 65 be df 0e 58 be 4b a4 60 3e ad 56 12 3d
       -0.22412385 -0.21099423 0.21937673 0.03572719
000050 f2 d6 81 3c 2e e9 c3 bd 7f 3b 80 3b bf 4a 93 be
       0.015849564 -0.0956596 0.0039133425 -0.28767964
000060 c6 11 f8 bd 8a ab 56 be 90 67 22 bc 83 36 6f 3d
       -0.12112765 -0.20963874 -0.009912387 0.058401596
000070 e2 09 ba bd f3 df cc 3d f3 57 a4 bd 52 77 e0 3c
       -0.09083916 0.100036524 -0.080245875 0.027400646
000080 75 e6 6e bd 3e 9e 22 3e b1 7b 86 be 49 77 c3 bd
       -0.05832525 0.15880677 -0.26266244 -0.09544236
000090 4d f6 88 be 1d aa ca bd 2b 7c d8 be 98 2b 28 3e
       -0.26750413 -0.09895728 -0.42282233 0.1642288
0000a0 b6 8c 3d bd fd f5 8c 3d 84 eb ac bd 1a 78 00 bf
       -0.04627677 0.06882856 -0.084433585 -0.5018326
0000b0 81 ae 27 be 24 8e 02 be 39 f4 1c 3d f3 ca a7 bc
       -0.16375162 -0.12749535 0.038318846 -0.020482516
0000c0 9b 06 c1 bd 93 f5 ed 3d 46 9c 18 3d 88 3f 93 3e
       -0.09425088 0.11619105 0.03725841 0.28759408
0000d0 a1 b2 f0 3e be 08 77 3d 64 e6 10 be 68 21 2f 3d
       0.47011283 0.06031107 -0.14150387 0.042756468
0000e0 08 5e ac 3d 9b ad 6f be 52 af 1f 3e 8d 5f 01 be
       0.084163725 -0.23406069 0.15594223 -0.12634106
0000f0 57 b8 13 be b2 13 65 bd 53 4b 3e bd d7 2a 51 be
       -0.14425789 -0.055926986 -0.046458554 -0.20426498
000100 0d c6 d2 3e 46 10 29 3f 09 e9 e7 bd d8 5c be 3d
       0.41166726 0.66040456 -0.11323745 0.09295052
000110 6a f9 04 bf 35 e2 da bc e6 b4 bc 3e 40 cb 2f be
       -0.51943076 -0.026719192 0.36856765 -0.17167377
000120 0d af b2 3e c1 99 c6 3e 25 73 6c 3e be ff 1c 3e
       0.34899178 0.3878918 0.23090799 0.15331933
000130 d8 b8 51 be 8d e8 96 bc 63 90 1e 3e 88 68 5f 3c
       -0.20480669 -0.018421436 0.15484767 0.013635762
000140 8b 06 8a bd 76 9a df 3e dc 7b 8e bd 9f d6 80 be
       -0.06739529 0.43672532 -0.06957218 -0.25163743
000150 fc d4 ce 3d 47 a1 83 3e 5f 57 cb 3d ef 7e 42 be
       0.10099217 0.25708982 0.09928774 -0.18993734
000160 4a 99 b0 3e 7c 0b 82 3d 7c 85 4d 3d ea 7e 82 3e
       0.3449195 0.06349847 0.05017613 0.25487453
000170 8d c4 25 3e de ed e9 3e 55 37 d7 bd db e6 26 3e
       0.1618826 0.4568929 -0.105086006 0.16299002
000180 7f 21 7f be 7c e8 b0 bd 0e e0 22 3e b4 82 40 3e
       -0.24915121 -0.08638093 0.15905783 0.1879986
000190 01 02 3c 3e 42 87 40 bd 4a 0a 5d bd fa 0a a0 3e
       0.1836014 -0.047003992 -0.05396489 0.31258374
0001a0 92 48 9b bd 5e 81 43 3e 43 57 01 3d d5 43 b3 3d
       -0.07582201 0.19092318 0.03157736 0.08753172
0001b0 e6 69 4b 3d 9a 1e 20 3e 53 eb fe 3e 76 00 8f be
       0.04966154 0.15636674 0.49788913 -0.2793004
0001c0 8e a1 75 be 15 d7 cb 3e 00 fe 31 bd 37 aa d8 bc
       -0.2398741 0.39812532 -0.043455124 -0.026448352
0001d0 db 69 3d 3e 40 ca 4a 3d 14 9d 18 3e 32 dc 0a 3f
       0.18497412 0.049509287 0.1490367 0.5424224
0001e0 94 90 f0 3d 74 59 63 3e ab 43 14 3e 04 28 87 3d
       0.11746326 0.22202092 0.14478938 0.06599429
0001f0 11 bb d1 3c b2 08 17 3e 72 00 8e 3e 6e a2 2e 3e
       0.025601896 0.14749411 0.27734715 0.1705415
000200 75 07 c6 be 9a fb 99 3d 2d d6 c2 3d 91 d3 05 3e
       -0.38677564 0.07518692 0.09513507 0.13068987
000210 71 17 24 3e b9 96 ee 3d e8 f5 05 3e cb b1 70 bd
       0.16024567 0.11649842 0.13082087 -0.058763307
000220 2f 5c 65 bd 8c 37 de 3d dd 76 95 be 8a 6c b2 bd
       -0.055996116 0.108504385 -0.29192248 -0.087121084
000230 75 67 d1 3d e6 0d a8 3e 42 1e a4 3e 2b 3e d9 bd
       0.10224811 0.32823104 0.32054335 -0.10607561
000240 1f b7 24 be 55 a3 92 3e df 40 44 3e 28 8a ae 3e
       -0.1608548 0.28640237 0.19165371 0.3408978
000250 50 99 93 be 89 51 a5 3b 3f 9d 04 be 7f 67 a8 3d
       -0.28827906 0.00504512 -0.1295061 0.08222865
000260 fc aa c3 be b2 dc b6 be 57 eb 84 3e ca 91 8c 3d
       -0.38216388 -0.35715252 0.259608 0.068637446
000270 ae f8 83 3e db cb 8b 3e 20 86 9f 3e 26 fa 7c 3e
       0.25775665 0.27303967 0.31157017 0.24704799
000280 44 7c 89 3e a9 35 de 3e fe 54 84 be c4 24 63 be
       0.2685262 0.43400314 -0.25846094 -0.22181994
000290 f0 5f 0e bf 26 c7 66 3d b3 b0 eb 3d 7d 2e 15 3d
       -0.5561514 0.056342266 0.11508312 0.036421288
0002a0 c4 21 88 3e 4f 01 af 3d a0 01 1c 3e 39 04 9f 3e
       0.2658826 0.085451715 0.15234995 0.3105791
0002b0 ff 7a 0b be 2d e4 a2 bd a5 b4 0b 3d 16 85 4c bc
       -0.13621138 -0.07953677 0.034107823 -0.012482902
0002c0 0a 76 0e bd 8b c5 5e bc c2 8e 83 3c 8e 0e 0c be
       -0.03478054 -0.013596903 0.016059283 -0.13677427
0002d0 27 78 ef bd 89 73 6d bd dc 80 60 be cc 04 80 be
       -0.11692839 -0.05797151 -0.21924156 -0.2500366
0002e0 73 8f 95 be 5c 4d d9 bc 98 78 ba 3e 0b 95 f8 bb
       -0.29211006 -0.026526146 0.3642013 -0.0075861267
0002f0 b3 b4 a5 3e 9e 64 97 3d 40 84 8a 3d 49 22 cf be
       0.32364425 0.07392238 0.06763506 -0.40455845
000300 00 98 92 3d 52 24 a1 3d f7 19 bb 3d 9d 6a a7 3d
       0.07157898 0.07868256 0.09135812 0.08174632
000310 fd d2 e0 bd 08 2d 11 3c 96 31 cf bd d2 df 78 3c
       -0.10977743 0.008860834 -0.1011688 0.015190082
000320 68 20 ac 3d d7 f2 2f 3d 62 d2 07 be 30 76 94 bd
       0.084046185 0.0429562 -0.13263848 -0.07249105
000330 95 75 f2 bd dd 30 04 3d 47 c0 2e bc 2d c8 f0 bd
       -0.11838833 0.032273162 -0.01066596 -0.117569305
000340 9a fa 43 bd 0c 90 fb 3c cf b4 98 3c a5 26 cd 3d
       -0.047846414 0.030708335 0.018640904 0.100171365
000350 d4 c9 6f bc 2e 77 36 3d 86 5d 74 bd cd aa a0 bc
       -0.014635522 0.044547252 -0.059659503 -0.019612694
000360 05 0e d3 bc 46 81 9a 3d 77 50 02 3d 80 71 bb bd
       -0.025763521 0.07544188 0.03181502 -0.09152508
000370 bc 72 06 be ef 5a 0b be 35 21 86 bd 83 06 36 bb
       -0.13129705 -0.13608907 -0.065493025 -0.0027774877
000380 d8 74 b8 3d 64 4c 0a bd 64 67 26 3c 09 f0 43 3d
       0.09006661 -0.033764258 0.010156486 0.047836337
000390 2e 72 a0 bd 39 f5 fb bd 26 2c 4b bc 86 ec 11 3d
       -0.07834278 -0.12302632 -0.0124006625 0.035625957
0003a0 79 10 a2 bd 5c 87 09 3b 61 5e 0b be 31 e3 ab bc
       -0.07913298 0.0020985221 -0.13610221 -0.020982357
0003b0 b8 29 18 bc 54 53 53 bc 10 45 22 bd 20 1a 23 3d
       -0.00928729 -0.012898285 -0.039616644 0.039819837
0003c0 0c 3b 83 bd 22 af be 3d 4a e1 f3 bd 69 08 ba bd
       -0.06407747 0.09310748 -0.11908205 -0.09083635
0003d0 c5 4d fb bd a3 09 b8 bd 55 c9 8f 3d 88 69 fd bc
       -0.12270693 -0.08986213 0.07020823 -0.03093411
0003e0 2f 5d b3 bd 36 4d ee 3b 6a d2 de bd b7 15 6d bc
       -0.08758008 0.007272388 -0.10879977 -0.014470509
0003f0 eb 29 19 3d 0f 35 13 bd 5c 3b 35 3d cb ee 12 3d
       0.03739349 -0.035939272 0.044246063 0.035872262

actor.2.bias f4 [64]
000000 3f 68 1a be 95 09 17 bc a3 b9 cd bc 20 27 20 be
       -0.15078829 -0.009218593 -0.025112933 -0.15639925
000010 10 e7 47 bd 4f 25 0d 3e a1 f4 6b be 0d 3d a5 3c
       -0.048804343 0.13783763 -0.23042537 0.020170713
000020 3c 25 69 bd 21 f7 99 3c c5 78 90 bd 54 ee 58 3d
       -0.056920275 0.018794598 -0.07054285 0.052961662
000030 b4 1f 39 be 70 aa 7d 3b 4c c8 06 bd f2 71 b4 3d
       -0.180785 0.0038706325 -0.03290586 0.08810796
000040 22 a9 1e bd 40 c3 22 bc 34 55 d8 bd 51 91 a7 bc
       -0.038735516 -0.009934247 -0.10563126 -0.020455034
000050 80 5d b3 3c 4e 96 76 bd 62 fe ac bd 16 ed a5 bd
       0.02189517 -0.060201935 -0.08446957 -0.08101861
000060 a6 72 f2 bb ca 47 17 3d 4c b5 bd 3d c5 1b 4d bd
       -0.007398921 0.036933698 0.09263095 -0.05007531
000070 9b b5 22 be 7b a4 cd 3d a3 79 fa bd e6 39 cc bb
       -0.1588959 0.10041138 -0.122302316 -0.006232488
000080 c3 63 97 bd f4 41 c0 3b f7 d1 01 be 76 57 0d 3d
       -0.07392075 0.005867237 -0.12677751 0.034507237
000090 ba e3 55 3e 80 e8 07 be 1b 7a d1 3c fd 17 e2 3c
       0.20887652 -0.13272285 0.02557092 0.02759933
0000a0 32 f6 4b 3d 3c 75 e6 bd db e7 23 bd c3 2d 21 3d
       0.049795337 -0.112528294 -0.040016036 0.039350282
0000b0 1d e3 a2 bc 6e 83 35 be cf 9b e6 bd 61 50 7a 3d
       -0.019883687 -0.17725918 -0.11260187 0.06111181
0000c0 f1 72 82 bd 1a 22 1a 3e 64 93 32 3d c6 47 72 bb
       -0.063695796 0.15052071 0.043597594 -0.003696905
0000d0 5b a4 22 be 72 76 cd bd f4 4f b9 bd 80 70 b1 bc
       -0.15883009 -0.10032357 -0.09048453 -0.02166009
0000e0 18 2d 88 bd 76 4c 2d 3e 43 1d 12 3d de 47 77 bd
       -0.06649226 0.16923699 0.035672437 -0.060371272
0000f0 40 da 6f bd 31 9a 31 bd 9e 8e 02 bc 69 ef c7 bc
       -0.05855775 -0.04335994 -0.007968573 -0.024406152

actor.4.weight f4 [36, 64]
000000 02 60 9f 3e a4 d5 c1 3e d4 73 8c be cf 54 bf bd
       0.31127936 0.37858307 -0.2743212 -0.09342348
000010 04 5e 86 be 2a 1d ce bd 19 eb 17 3f 78 7e f1 3e
       -0.26243603 -0.10064156 0.59343106 0.471668
000020 6a e5 97 bd e6 55 92 3e ed 82 85 bd e3 06 b8 3e
       -0.07416804 0.2858116 -0.06519113 0.35942754
000030 b5 0a 08 bd 92 f1 bc be 5b 9f 52 3e ce 76 7a 3d
       -0.033213336 -0.36903054 0.20568602 0.061148457
000040 cf c7 34 3e ea c8 17 bf 5f dc 4b bd 3a f5 ed 3e
       0.17654346 -0.59290946 -0.04977071 0.46476156
000050 0e 2f 91 3e b5 15 5d bf b8 30 94 bc ba 25 83 be
       0.28356212 -0.8636125 -0.018089637 -0.2561472
000060 e7 94 b1 3d 33 90 5e 3e 9f 91 0b bf 80 92 65 3e
       0.08670979 0.21734695 -0.54519075 0.22419167
000070 87 bd 09 be cd 37 fd bc c5 33 9d 3e 11 ce 78 bf
       -0.13451205 -0.030910397 0.3070356 -0.9718943
000080 52 c7 d8 be f5 67 4e bf 8f 13 12 bc 2c 37 e4 3e
       -0.4233957 -0.80627376 -0.008915796 0.44573343
000090 82 59 bb bf d0 99 97 3e 0e 43 14 be 16 7a 14 be
       -1.4636691 0.29609537 -0.14478704 -0.14499697
0000a0 ac 8a 45 be 02 14 0a 3f 09 b6 93 bf 69 b7 dc bf
       -0.1929118 0.5393678 -1.1539928 -1.7243472
0000b0 63 96 cd bf 14 ca c1 bd ba 4c 9d 3e bf 8f 84 be
       -1.6061519 -0.094623715 0.307226 -0.2589092
0000c0 1a 14 b9 3c ed 0a 75 3e 48 b6 c3 bf 12 72 86 bf
       0.022592593 0.23929949 -1.5290003 -1.0503561
0000d0 08 02 f6 3d 38 e5 d7 bd 22 4e 0d 3f 78 c3 a8 3e
       0.12012106 -0.10541767 0.55197346 0.3296163
0000e0 53 3e ba bf 6a 91 b8 bf 7a ae 3d bf 2f 43 7f be
       -1.455027 -1.4419377 -0.74094355 -0.24927972
0000f0 ca 4a d1 bd 58 97 f4 3d 5d f0 2f 3c bb d9 1d bd
       -0.10219343 0.11942929 0.010738459 -0.038537722
000100 12 86 d2 be 05 01 d3 bd 6d 1c f5 3e dd 31 cd bc
       -0.41117913 -0.10302929 0.4787325 -0.02504819
000110 6e 85 87 3e 08 96 19 bf 80 2d 00 bf 60 bf 81 ba
       0.26468986 -0.59994555 -0.5006943 -0.0009898953
000120 0d 10 5a bd b1 46 4e 3e d1 71 7d 3e 1d a9 4a 3e
       -0.053237963 0.20144154 0.24750449 0.19791074
000130 49 8c 0a 3e 5a 19 cc be 09 00 c8 be 76 ac 1a 3e
       0.13530077 -0.39863092 -0.39062527 0.15104851
000140 de 1d ab bf b4 80 9a 3e c3 41 4d bf d3 98 04 be
       -1.336849 0.30176318 -0.8017847 -0.12948923
000150 75 08 86 3e a0 79 56 3e 85 4b 3e 3e 30 5e 93 be
       0.26178327 0.20944834 0.18583496 -0.28782797
000160 e1 aa 0b bf ca 79 f1 be a3 49 87 bf 0f af 66 3e
       -0.54557616 -0.4716323 -1.0569347 0.22527717
000170 f0 7a d0 3e 62 d9 ad 3e 94 9c a9 be fe 10 8b bf
       0.40718794 0.33954912 -0.33127272 -1.0864561
000180 93 ad 6b 3e 06 ef 23 bf 26 45 c6 3d 3d 19 03 bf
       0.23015432 -0.64036596 0.09681158 -0.51210386
000190 ca fa 9f be 0f 5a bc 3e e1 14 fb 3e 8b f0 fc bf
       -0.31246024 0.3678746 0.49039367 -1.9760908
0001a0 99 a9 eb 3e d8 d4 a6 3e 8c 1b ba bf 71 16 d5 bf
       0.4602783 0.32584262 -1.4539657 -1.6647474
0001b0 b0 22 de 3c 3f 9f 99 bd c6 aa 82 be a4 b7 b1 bf
       0.02711615 -0.07501077 -0.25520915 -1.3884168
0001c0 6c 3e 2a 3b cd 48 5d 3e b4 05 99 be c7 9d c4 bf
       0.0025977148 0.21609803 -0.29887164 -1.536065
0001d0 8d e7 e5 3e 77 7a 93 3d c0 e2 03 3f fe ab 04 be
       0.44903222 0.07201093 0.5151787 -0.12956235
0001e0 e4 66 89 be 0b b9 b4 bf 40 92 3b bf dd 85 10 3f
       -0.26836312 -1.4118971 -0.73270035 0.5645426
0001f0 c9 b6 dc 3d f1 13 a1 3e a5 98 fa 3d d2 0e 3f 3c
       0.10777051 0.31460527 0.12236146 0.011661248
000200 7c 0a 86 3e f3 93 38 be 09 99 ce 3e d1 6f 78 bd
       0.26179874 -0.18025188 0.40351132 -0.06065351
000210 a7 9b 83 be f8 c2 ac 3e a6 43 26 be 95 79 b6 3d
       -0.2570469 0.337425 -0.16236743 0.08909909
000220 a6 c8 54 3d 0f 82 53 3e c7 55 1a 3f 06 2d 71 3d
       0.051949166 0.20655082 0.60287136 0.05888083
000230 20 b3 bf 3e 99 a3 f0 be ce 20 38 bf 2b 87 be ba
       0.3744135 -0.46999815 -0.71925056 -0.0014536133
000240 cb c7 53 bf 80 53 98 3e b1 b5 89 3e 7a 7f cc 3d
       -0.82726735 0.29751205 0.26896432 0.09985252
000250 6d c1 d8 3e ef df 46 bf 74 9a ff 3e 18 f7 07 be
       0.42335072 -0.77685446 0.49922526 -0.13277853
000260 b2 cb 32 be 13 88 97 be 20 15 c7 bf d2 5a 91 3e
       -0.17460516 -0.29596004 -1.5553322 0.28389603
000270 0b e9 81 3e 24 01 44 3e d8 33 85 3e c5 9e 05 bf
       0.2537311 0.1914106 0.26016116 -0.5219539
000280 4a 14 97 3c b6 ee 9c bd e7 ba 0c 3e 5d 64 ef 3e
       0.018442292 -0.07662718 0.13743173 0.4675626
000290 17 90 92 bf 55 99 1e 3e d2 55 6e 3e 3c bb 37 bf
       -1.1450223 0.15488179 0.23274925 -0.7177007
0002a0 81 52 8a 3e 6d cd 4d 3e cc 25 b7 bf c7 e4 ca bf
       0.2701607 0.20097895 -1.430841 -1.5851067
0002b0 1c 3a 71 bf 79 c2 a2 be 65 97 cc 3e 88 85 68 bf
       -0.9422929 -0.31788996 0.39959255 -0.9082875
0002c0 f3 0d d7 3d 0e f6 cd 3e 3b 34 b0 bf 0c a9 27 be
       0.105007075 0.40226787 -1.376594 -0.1637308
0002d0 91 38 98 3e 34 da 2a bd 2d e4 c2 be 74 f5 f2 3e
       0.29730657 -0.041712 -0.3806471 0.4745289
0002e0 d4 fc b3 bf 26 d8 d4 bf ea 47 a5 bf 2b 77 0b be
       -1.4061532 -1.6628463 -1.2912571 -0.13619678
0002f0 81 c1 71 3d 0a 97 94 3e 3b 8e 00 bd bc 0c 1c bd
       0.05902243 0.29021484 -0.03138564 -0.038098082
000300 35 af 3a 3e ca 40 0b 3d 02 8c 80 be 97 71 8b 3c
       0.18230899 0.033997335 -0.25106817 0.017021937
000310 e1 10 03 be 6f 62 30 3e fb b5 0b 3e 8d 75 45 3e
       -0.12799408 0.1722505 0.13643639 0.19283123
000320 6d 36 88 bd 7f b7 1e 3e 78 42 e0 3d 1e e3 25 3e
       -0.06651006 0.15499686 0.10950178 0.1619992
000330 a8 af af 3e 9f ec aa be e1 db 1c be 16 a5 df 3e
       0.34313703 -0.33383653 -0.15318252 0.43680638
000340 87 72 0c bf 76 6c c0 be b0 46 12 be d0 b7 5b bc
       -0.54862255 -0.3758275 -0.14284778 -0.0134105235
000350 c7 ff 5f 3d ad b5 fa be 53 d1 91 3d ea 66 aa 3e
       0.054687288 -0.48966733 0.071200036 0.33281642
000360 36 52 35 3e e7 fa 27 be 6c 69 83 bf 20 2c 3f be
       0.17707142 -0.16404305 -1.0266547 -0.18669176
000370 b9 17 4f 3e e8 05 bd 3e 9a 69 c6 3e 21 65 90 bf
       0.20223893 0.3691857 0.38752443 -1.1280862
000380 56 5b 1d 3e cf 16 44 be 5b db 44 bb 72 0d dd bd
       0.15366873 -0.19149326 -0.0030037973 -0.1079358
000390 0e 08 b4 bf 60 26 b9 3d 16 02 6f bd f6 0e 91 bf
       -1.4064958 0.090405226 -0.0583516 -1.1332691
0003a0 1c 73 fd 3d 0d 3a 92 3e 6a c9 51 bf e7 38 b2 bf
       0.12375471 0.28559914 -0.8194796 -1.3923615
0003b0 8f 95 92 bf c3 b9 70 3e 80 92 6d 3e ff b4 82 bf
       -1.1451892 0.23508362 0.23200417 -1.0211486
0003c0 60 f4 92 bd 37 8b 4d 3d 86 e7 8a bf 5e 20 8d bf
       -0.07175517 0.050181594 -1.0851905 -1.1025503
0003d0 c1 64 a1 3e 85 57 d1 3c 7e 67 01 be 01 43 71 3e
       0.31522182 0.025554428 -0.12637135 0.23560716
0003e0 3d 2c 79 bf 30 fd b1 bf c1 81 2d bf c8 dd 7d be
       -0.9733313 -1.3905392 -0.67776114 -0.24791634
0003f0 b2 6c c1 bd 8e 63 7a 3e 81 9c a3 bd e4 ed 42 bc
       -0.0944456 0.2445204 -0.07988835 -0.011897538

actor.4.bias f4 [36]
000000 df f7 d8 be 1a 7a b9 be a0 38 93 bd 87 4d 93 be
       -0.4237661 -0.3622597 -0.07188535 -0.28770086
000010 9c 6f 51 3e 62 68 dd bd 99 fc 90 3d a6 9b 58 3e
       0.20452732 -0.10810925 0.07079429 0.21153125
000020 43 83 17 bc 9d b1 c8 3b f7 d3 16 3d ea 13 86 3d
       -0.009247604 0.006124689 0.03682324 0.06546767
000030 44 ca 7c 3c 72 dd 3d 3e 76 a3 65 3d b7 b1 ff 3c
       0.015429083 0.18541506 0.05606409 0.03121267
000040 cf e9 d6 be a1 b3 53 bf 4c 64 f2 be 8c dd 3b be
       -0.41975257 -0.82695967 -0.47342145 -0.18346232
000050 0f a5 3c bf d0 b6 76 3d 05 f1 0f 3e 5c 13 84 3d
       -0.7368936 0.060232937 0.14056785 0.06449005
000060 f3 b9 52 3e 53 fa 87 3e 30 d7 f1 3d 9a f2 9f bd
       0.20578746 0.2655817 0.11808622 -0.078099445
000070 9f 80 0c be dd c8 3a 3e 06 7c 84 3c 7c 12 b6 3d
       -0.1372094 0.18240686 0.01617242 0.08890244
000080 6d 80 a0 3d cc 6c 26 3e a0 66 59 3e 9d 4c 2c 3e
       0.07836995 0.1625244 0.21230555 0.168261

critic.0.weight f4 [64, 62]
000000 c8 60 9c 3d 6a 19 ab 3d 31 d8 ab bd 70 5b 1b 3c
       0.07635647 0.08354457 -0.083908446 0.00948225
000010 60 c6 1c be 7d f3 25 be b5 c9 19 3e 2b 9b da 3d
       -0.15310049 -0.16206165 0.15018351 0.10674127
000020 ad 1f e1 3c 53 fb 76 3e 45 5c 1e bf ba 58 30 3e
       0.027480925 0.2411931 -0.6185954 0.17221346
000030 9c 23 0c bf fb fd a8 be 36 cc 51 be 6d 4a 27 bf
       -0.54741836 -0.33006272 -0.20488057 -0.6534794
000040 00 11 09 bc ac 20 dd bd 13 fe f7 bd c8 76 b6 3d
       -0.0083658695 -0.10797247 -0.12109008 0.089093745
000050 0c 4a bb bd 7c 17 b6 3d d0 10 10 3c 3c 3c 98 bc
       -0.09144983 0.08891198 0.008793071 -0.01858341
000060 ee 3e c9 3d 27 17 cb bd c0 34 79 3d b4 99 ad 3d
       0.09826456 -0.09916525 0.060841322 0.08476582
000070 f6 df 49 3e 8b 53 2c 3e cf e0 c7 3e 2b e7 d2 3e
       0.1971434 0.16828744 0.39038703 0.41191992
000080 f2 fb c0 bd 9a a3 b1 3d 50 32 b7 bc 74 eb af 3d
       -0.09423055 0.08673783 -0.022362858 0.08589831
000090 45 b9 9e be 8e 8c 98 be f3 5e 86 3d 5d 34 5b be
       -0.31000724 -0.29794735 0.06561079 -0.21406694
0000a0 22 12 f7 be d1 a4 6c be 16 06 a7 bd dd 09 5b be
       -0.48256022 -0.23109747 -0.08155458 -0.21390481
0000b0 54 7f 75 be ac b5 08 be 31 d7 38 bd 0f d0 9f be
       -0.23974353 -0.13350552 -0.045127098 -0.31213424
0000c0 b1 e6 fe bc 56 5b 75 be 94 92 25 be 02 6d 74 be
       -0.031115862 -0.23960623 -0.16169196 -0.23869708
0000d0 14 b7 00 3d 98 00 0d be ab d1 0d be 3f 0a 9f 3e
       0.031424597 -0.13769758 -0.13849513 0.31062505
0000e0 a6 72 f7 3e 88 36 30 3d 1d 0f c2 be d8 72 ab bd
       0.48329657 0.043020755 -0.37902156 -0.08371514
0000f0 aa c5 54 be b3 96 25 be dd 19 e7 bd cc bf 83 3d
       -0.20778528 -0.16170768 -0.1128423 0.06433067
000100 28 39 8d bc 14 25 4d bd e2 83 05 3d e9 fb 39 3d
       -0.017239168 -0.05008419 0.032596476 0.045406256
000110 e1 14 fa 3d 5e 5a 22 3e fe 5d 0f bf 44 f3 fa be
       0.122110136 0.15854785 -0.56002796 -0.49013722
000120 de d1 c9 3d 36 2f 97 3e 09 99 33 be 1a 05 db 3d
       0.09854482 0.29528207 -0.17538847 0.106943324
000130 1d ed 85 bd 81 c8 85 3e a2 f5 d4 3d fc 2e df 3d
       -0.065393664 0.26129535 0.10398413 0.108976334
000140 c0 91 8b 3d 40 04 df bb 5e 60 05 bd 76 59 f8 bd
       0.06814909 -0.0068059266 -0.032562606 -0.12126438
000150 e2 da 88 3d 00 cd eb bc a8 10 a3 3c ec f3 ea bc
       0.066823736 -0.028784275 0.019905403 -0.028680764
000160 16 fc a7 3d c0 3a 84 3b 50 06 32 3e e7 07 6d 3e
       0.082023785 0.004035324 0.1738522 0.23147546
000170 bc 4c ce 3e 92 46 93 3e 74 dd 70 3d 60 54 99 bd
       0.4029292 0.28764778 0.058804944 -0.074867964
000180 b6 e9 b6 3d e6 7b c9 3d 4e 09 17 bf 98 bc 09 bf
       0.089312956 0.09838085 -0.5899857 -0.53803396
000190 9f 9c b3 bc d4 41 25 3e 3e 16 c4 be a0 77 4c be
       -0.021925269 0.16138393 -0.3829822 -0.19967508
0001a0 0c 6e 59 be 2b 82 df bd 73 62 5e be e0 f2 74 be
       -0.21233386 -0.109134994 -0.21717243 -0.23920774
0001b0 0d 44 20 be 3b f3 25 be 2c be 1f 3e 3e 98 7b be
       -0.1565096 -0.16206066 0.15599889 -0.24569795
0001c0 e0 a3 7c be d9 b1 c0 be b0 1b 3f bd fa 13 5c be
       -0.24671888 -0.37635687 -0.046657264 -0.21491995
0001d0 34 2f bc bd b7 38 ce bb 22 81 ea 3e 8c 46 48 3d
       -0.09188691 -0.006293382 0.45801646 0.048895404
0001e0 a2 62 1a bc 79 2f 5d 3d ff 81 81 be 24 7a d1 3d
       -0.00942293 0.05400035 -0.25294492 0.102283746
0001f0 1a 4f d7 bd 14 23 a3 3d 1e 64 d7 3d 24 24 47 3d
       -0.10513134 0.07965675 0.10517143 0.04861845
000200 b8 68 38 be 28 64 55 be 59 6a 9b bd 14 ba a1 be
       -0.18008697 -0.20838988 -0.075886436 -0.3158728
000210 8c ce dd 3c b6 d6 73 bd 92 60 dd 3b 34 06 3d bd
       0.027076028 -0.059530936 0.006755897 -0.046148494
000220 90 e8 b8 be 56 c5 e1 bc 28 c7 5a be 31 65 93 be
       -0.3611493 -0.027559917 -0.21365035 -0.2878814
000230 00 1f a3 bc 0a a1 99 bd de 74 f2 3d 9b 83 d3 bd
       -0.019912243 -0.07501419 0.11838697 -0.10327836
000240 2c c6 f2 3d 78 ec af bc d0 58 bc 3c 04 7c e2 3d
       0.118542045 -0.021475062 0.022991568 0.1105881
000250 c2 b2 70 bd ac bd 40 bd c4 37 57 3d c2 ca 03 bd
       -0.058764227 -0.047055885 0.052543417 -0.032175787
000260 92 cd ca bd 9d 48 ea bd 55 71 f5 bd af af 16 be
       -0.09902491 -0.11439631 -0.11984507 -0.14715455
000270 a6 e6 63 bd c4 7e 53 3d 00 6a 49 3c 22 0e c8 bd
       -0.055639885 0.051634565 0.012293339 -0.097683206
000280 a0 53 a2 bd dd cd 92 bd 48 0a 8e 3d 8f b3 d9 3c
       -0.079261065 -0.071681716 0.06935555 0.026574878
000290 18 2a a1 bd 22 7e 2e be 5e 03 05 be 48 e6 06 be
       -0.07869357 -0.17040303 -0.12989566 -0.13173783
0002a0 c2 e1 cb bc 79 d6 36 be 7f a0 08 be 43 56 a1 bd
       -0.024887923 -0.17855252 -0.13342474 -0.07877781
0002b0 48 1e cc bd 17 e1 08 3b 88 0c a5 bd 61 c1 16 3d
       -0.09966713 0.0020886117 -0.08059031 0.036805514
0002c0 dc 67 77 3d df f6 09 3d d6 e8 48 3c ca cb 08 be
       0.060401782 0.0336827 0.012262544 -0.1335899
0002d0 c2 65 9f bb b0 a2 e9 bb 99 8d ce bd 7d 19 18 bb
       -0.0048644254 -0.0071299896 -0.10085601 -0.0023208552
0002e0 2f a7 9c 3d 3b 6a ab 3c 5e 8e eb bd c2 11 ef bd
       0.07649075 0.020924678 -0.11501764 -0.11673309
0002f0 8d ab d9 bd 5c f5 b5 3d e4 64 ea bc 1d 2a ba be
       -0.10628424 0.08884689 -0.028612562 -0.36360255
000300 c5 e2 14 be 82 f6 18 be a2 48 9d 3e bc df dd bd
       -0.1453963 -0.14937785 0.30719477 -0.108336896
000310 66 50 1b 3d 30 4c 97 3c 6e b6 d7 3c 84 ea 66 3d
       0.03791847 0.018468946 0.026332106 0.056375995
000320 08 ba 6e 3e 37 93 9b 3d 90 5f 1b bd 4b 6d a1 bd
       0.23313153 0.075964384 -0.037932932 -0.07882174
000330 82 c9 ab bd 46 23 b8 3d d8 a5 ac 3c 58 b8 2a 3d
       -0.08388044 0.08991103 0.021075174 0.04167971
000340 d5 03 bd bd b0 e2 c0 3c 8c b4 e7 3d 4c 75 8e 3d
       -0.092292465 0.023545593 0.113137335 0.06955966
000350 50 09 b6 bb 36 79 6f bd 51 1e 7a 3d 5f 04 47 be
       -0.0055553094 -0.058465205 0.06106407 -0.19435261
000360 75 7f 9a bd b4 b0 60 be 0a 87 13 bd a0 04 a4 bb
       -0.07543842 -0.21942407 -0.036017455 -0.005005434
000370 5c dd f4 bc 8e 49 9a bd 33 d0 42 3d 4e 27 c1 3d
       -0.029890709 -0.07533561 0.047561835 0.09431325
000380 8a 15 2c bd 76 a4 28 be 1f ec 0f be e9 c4 02 bf
       -0.04201273 -0.16468987 -0.14054917 -0.5108171
000390 3c 3c 6f 3e e4 f1 d1 3d af d5 21 3e 0e 41 72 be
       0.23362821 0.10251215 0.1580417 -0.23657629
0003a0 59 b4 92 3c d2 c0 b6 bb ff e6 46 bc 26 90 5c be
       0.017908262 -0.005577185 -0.012140035 -0.21539363
0003b0 20 31 8a bd 94 3f ce bd bc 15 b7 3d 9b b1 ee bc
       -0.06747651 -0.1007072 0.089396924 -0.029137423
0003c0 db 76 25 bd 1f a9 a4 bd 39 67 6e bd 14 47 a0 bc
       -0.040396553 -0.0804007 -0.05820391 -0.019565143
0003d0 f3 d2 09 bf 34 1f 8c 3d 7c 2b 25 3e a0 3a f3 bd
       -0.5383751 0.06841889 0.16129869 -0.11876416
0003e0 3e f8 8b 3d 00 79 b8 3d d0 2e ea bd c8 31 a8 bd
       0.06834458 0.09007454 -0.1143471 -0.0821262
0003f0 c0 1c 9b be 02 08 1a be b7 53 fb 3d e6 72 b9 3e
       -0.30295372 -0.15042117 0.12271827 0.36220473

critic.0.bias f4 [64]
000000 2a cc 9f bd f0 c8 c2 3d 8c 4e 24 be 24 45 2f 3d
       -0.07802613 0.09510982 -0.16045588 0.042790547
000010 0e 56 38 bd f9 73 29 3c 5e 34 12 be d8 4d 84 be
       -0.045003943 0.010342591 -0.14277789 -0.2584064
000020 cd b7 d2 bd 53 92 77 be 70 4d a9 bc 22 5b d7 ba
       -0.102889635 -0.24176912 -0.020666808 -0.0016430358
000030 ce 3d e8 bd f2 d0 32 be 13 c1 8b be 4b af 47 3c
       -0.11339913 -0.17462519 -0.2729574 0.012187789
000040 01 dc de 3c ae 4e c2 bc 91 0d 14 be e9 ec b7 3a
       0.027204515 -0.023719158 -0.144583 0.0014032397
000050 23 29 37 be 8e 68 81 bd 56 f2 e4 3c ed 7e 3d bd
       -0.17886786 -0.0631877 0.027947586 -0.046263624
000060 99 5b 20 3e a2 55 b6 bd 36 c9 44 be 18 56 30 3c
       0.15659942 -0.08903052 -0.19217381 0.010762714
000070 c0 0d 45 3e f3 19 be 3d 9a 57 be bd d4 b7 22 bd
       0.19243526 0.09282293 -0.092940524 -0.039726093
000080 33 cc d6 bd 94 3c c5 bd 2a 84 31 3d 2c 9b 80 3d
       -0.10488167 -0.09630695 0.043338932 0.06279597
000090 87 6b e7 bd 97 bd 0b bd e2 5c a1 bd b6 bb 9c 3d
       -0.11299806 -0.034116354 -0.07879044 0.076529905
0000a0 16 f5 06 be 54 37 f7 3c a1 ec 10 bd 3a 1b 04 be
       -0.1317943 0.03017775 -0.035381917 -0.12901011
0000b0 b8 ff a1 be cc 5c b4 be 41 3a 71 3c e2 c0 32 3d
       -0.3164041 -0.35227048 0.0147233615 0.04364098
0000c0 d1 d1 04 3d 67 10 41 be 8c 1f b8 bc 5e 2d 93 bc
       0.03242666 -0.18853913 -0.02247598 -0.017965969
0000d0 19 04 18 3e 60 48 51 be 49 22 23 be 77 11 b2 bd
       0.14845313 -0.20437765 -0.15931047 -0.086947374
0000e0 e9 03 a0 bd f9 d8 ba bc 10 34 f2 bc f6 7c 9a bc
       -0.07813246 -0.022808539 -0.029565841 -0.018858414
0000f0 cf 91 6b 3e 1e 70 15 be be 7b 7c be 6f c1 e1 bd
       0.2300484 -0.1459355 -0.24656579 -0.11023223

critic.2.weight f4 [64, 64]
000000 98 48 d1 3e 30 63 8d 3e 22 e5 f7 3c cf bf 99 be
       0.40875697 0.27614737 0.030260626 -0.3002915
000010 ea 13 a4 3e fd 8b a5 3e d3 d6 6f 3e 3d b9 11 3e
       0.32046443 0.32333365 0.23421793 0.14230819
000020 9f fb 8e 3d 4d aa 83 3b ed d7 2a 3d 8a 5a 6b 3e
       0.06981587 0.004018104 0.04170983 0.22983757
000030 03 cb b3 bd 81 d2 d9 3e 45 a1 d9 bc db 43 62 3a
       -0.08778956 0.42543414 -0.026566157 0.0008631327
000040 1a c6 6d 3e a5 4c 31 3e a7 0e 73 bd c5 3d b7 3e
       0.23220101 0.17314394 -0.059340145 0.35789314
000050 70 91 a8 bc fe 30 f2 be 40 78 06 3e 4a 74 26 bc
       -0.020577163 -0.47303003 0.13131809 -0.010159561
000060 bd bd 18 3c 0f 22 cb bb b2 a6 e6 bd b1 94 d5 3d
       0.009322581 -0.0061991285 -0.11262263 0.10428751
000070 7a 80 a3 be 56 75 46 3e a2 e5 94 3d 1c 1d 13 bc
       -0.31933957 0.19380698 0.072703615 -0.008979108
000080 36 26 95 bb 67 c0 98 bd ae 41 00 3e 88 38 b1 3e
       -0.0045516742 -0.07458573 0.12525055 0.34613442
000090 a4 d0 bb 3d 83 7d 13 3e 86 fd 44 3e 08 90 27 be
       0.091706544 0.14403348 0.19237337 -0.16363537
0000a0 19 ab 73 be b5 7d 97 3e 4d ac 55 3e ee 7b d7 bd
       -0.23795737 0.29588094 0.20866509 -0.105216846
0000b0 e0 8d 27 3d 1d fc 8c bd 25 73 ab 3e 1c 6f 32 3c
       0.040906787 -0.06884024 0.33486286 0.010890748
0000c0 a4 6f 30 3e fb 64 7d 3c 94 68 0a 3d 0b f8 2b 3e
       0.17230088 0.01546597 0.03379114 0.1679384
0000d0 25 ba 48 be 5c df 97 bd 51 79 3f be a0 0c 60 3e
       -0.19602259 -0.07415649 -0.18698622 0.21879816
0000e0 cd 24 e3 bc 89 cc 3f 3e 82 9e d0 3c 2e f5 44 3e
       -0.027727509 0.18730368 0.025466207 0.19234154
0000f0 85 76 d3 be 0c a2 2e bd c4 7e 12 3e 60 26 58 bd
       -0.4130136 -0.04263501 0.1430617 -0.052770972
000100 3d d8 b3 bb c0 1c 64 3c 95 9e c0 bc 46 ad 76 bd
       -0.005488424 0.01392287 -0.023513118 -0.06022384
000110 b3 39 7e be 23 32 ad bd c4 5d 6f bd 6a 7a a8 3d
       -0.24826698 -0.084568284 -0.05843903 0.08226474
000120 68 11 91 bd 06 d9 cc bd a0 3a 35 bd 3c 72 ec bd
       -0.07083398 -0.100023314 -0.044245362 -0.11545226
000130 1a a6 ad bd 81 7b 33 be cd 16 16 be 6b 59 c4 bc
       -0.08478947 -0.17527582 -0.14657135 -0.023968419
000140 81 9c 06 3d 6f 6f 4d be 89 b3 58 bd 68 e8 1b 3c
       0.032864098 -0.2006204 -0.052905593 0.009515859
000150 15 5f d1 3d 15 b9 9d 3b bf 3d 56 3a 15 45 86 bd
       0.102232136 0.0048133233 0.0008172653 -0.06556145
000160 3e 5d d3 bd 82 d1 69 bd b5 16 01 be fd 6d 14 3e
       -0.10320519 -0.057084568 -0.12606318 0.14495082
000170 27 31 68 3c fb 33 fa bd ea 97 f7 bc 7b 08 86 bd
       0.014171875 -0.12216946 -0.030223805 -0.06544586
000180 48 47 e6 3c e2 88 16 3d 91 b7 ad 3d 97 fe 57 be
       0.028110161 0.036751635 0.08482278 -0.21093212
000190 3b 25 0f bc e9 7e 1c 3d ef 89 1b 3d fa 5c 73 38
       -0.008736904 0.03820697 0.03797334 5.8022306e-05
0001a0 5d 04 76 bc 51 a5 01 3e 6b 5f ee 3c 1a c0 1f 3d
       -0.015015689 0.1266072 0.029098233 0.03900156
0001b0 23 6e d6 3d df 41 da bd 08 3d ec 3b 87 28 65 3d
       0.10470226 -0.10657095 0.007209424 0.055946853
0001c0 fe ef 18 bd 7c 50 7e bd d6 a6 f7 bd 75 e6 aa 3d
       -0.03733825 -0.062088475 -0.12092368 0.083447374
0001d0 82 7b 25 be 26 09 a0 bd 75 28 df 39 1b 97 92 3d
       -0.16160396 -0.07814245 0.00042564017 0.07157727
0001e0 84 39 ab bd 3d e7 c8 3c f7 f7 63 3d cc b9 af bd
       -0.083605796 0.024524326 0.0556564 -0.0858036
0001f0 82 22 b9 3d 9f 92 97 3d 5d 43 c5 3d 7b 2b 39 be
       0.09039785 0.07401013 0.09631989 -0.18082993
000200 d0 b8 0b 3e 64 9d 0a 3c 07 86 12 bd 66 2d 5c bc
       0.13644719 0.008460376 -0.03577235 -0.013438558
000210 ac ad 4f be dd bd fe bd 91 8a c9 3c a7 7d a7 bd
       -0.20281094 -0.12438557 0.024602206 -0.08178263
000220 ca 61 91 be c1 0c 40 bc a6 9e 54 bd 12 1c d4 be
       -0.2839492 -0.011721791 -0.05190911 -0.41427666
000230 19 32 be bd d4 a7 2c be 22 ea 19 3e 28 44 0c 3e
       -0.09286899 -0.16860896 0.15030721 0.13697875
000240 a1 35 a2 be c4 aa b5 be fb 53 46 bb a5 58 b4 be
       -0.3168154 -0.35481846 -0.0030262459 -0.3522388
000250 6a 43 b0 3d 27 7a 52 3d 11 0e 58 3d 91 f0 71 3d
       0.08606608 0.051386025 0.05274779 0.059067313
000260 b0 78 30 3f ab 3c a4 3c d1 f7 2a bd 71 ae 20 3e
       0.68934155 0.02004846 -0.041740242 0.15691544
000270 d8 e1 2f 3e 6a 26 03 be 05 96 e6 3c e3 2f 87 be
       0.17175996 -0.12807623 0.028147707 -0.26403722
000280 6b 58 4c 3e 7b ef d2 bc fe 28 a5 bd b7 cf 5c be
       0.19955604 -0.025748959 -0.08064459 -0.21563612
000290 57 f8 e0 3d 37 32 cd 3c 84 83 a2 3d 5c b0 dd bc
       0.10984867 0.025048358 0.07935241 -0.027061634
0002a0 c5 33 86 3e 90 01 4e 3e 91 3e d6 bd f0 32 b9 3b
       0.26211372 0.20117784 -0.10461152 0.005651824
0002b0 19 16 cc 3d 9c 78 2f bd 19 7c 27 3d f9 18 c3 3e
       0.09965152 -0.04283963 0.040889833 0.3810499
0002c0 f7 62 15 3e 15 3a 54 bd 3d 27 81 be 65 93 a0 bd
       0.14588533 -0.051813204 -0.2522525 -0.07840613
0002d0 65 d2 5b 3e e3 a6 c6 3d d4 33 90 3d 9b 31 bf 3d
       0.21466978 0.096998 0.070411354 0.09335633
0002e0 ae 7e 61 be 65 a5 4d 3d 82 95 69 bf 53 64 5e 3d
       -0.2202098 0.05020656 -0.91243756 0.054294895
0002f0 43 5c 0f bd 1e 25 d6 bd 8b 7d 1d 3d d0 d2 cd be
       -0.035000097 -0.10456298 0.038449805 -0.401999
000300 1f 1d 18 bc b4 3a 8b bc 36 dc d1 bd 53 36 84 bd
       -0.009284287 -0.016995765 -0.1024708 -0.06455674
000310 84 55 e4 37 47 ec e1 bd 86 84 9f bb 26 47 5a bd
       2.721954e-05 -0.110313945 -0.004868093 -0.05329051
000320 94 aa b1 bd fe 34 fd bd 21 74 2c 3c a1 7b da bd
       -0.08675113 -0.12363623 0.010525734 -0.106681116
000330 37 9e d4 3c 6c 33 1b be 59 ab 61 3d 85 e1 c6 3d
       0.025954349 -0.15156335 0.05509505 0.09710983
000340 da 82 07 3d b6 5b ae bd 36 9e 17 be d5 93 16 3d
       0.033083774 -0.08513586 -0.14806446 0.036762077
000350 44 66 4d bb e9 6d 45 3d 51 2a ee bd fb d9 fc 3b
       -0.0031341473 0.04820052 -0.11629165 0.007716415
000360 c7 95 4f bd 4c e6 ed bd 7e 61 0d bd 89 d9 84 bc
       -0.05067995 -0.11616191 -0.034516804 -0.01621701
000370 16 72 08 bb 85 a3 e5 bd 05 f7 6d 3d 3d 2a 09 be
       -0.0020819954 -0.112128295 0.058096904 -0.13395019
000380 24 91 02 3d 07 25 93 3d 48 4b fc bc 86 a9 0f be
       0.031876698 0.07184797 -0.030797616 -0.14029512
000390 8c 0c 5e bc 9c 95 1a be 32 2c d6 bd 96 69 ec bd
       -0.013552796 -0.15096134 -0.10457648 -0.115435764
0003a0 3c e2 86 bd 15 bf cb 3d 36 27 e6 bd b1 8f 4d 3d
       -0.065861195 0.099485554 -0.11237948 0.050185863
0003b0 c4 41 7a bd 71 86 6b 3d 10 e6 f4 bc 61 f6 57 bd
       -0.061097875 0.05750126 -0.029894859 -0.0527252
0003c0 2f 6a e6 bd 1a 78 ee bc a2 c4 20 bd c7 19 a6 bd
       -0.11250722 -0.029110003 -0.039250024 -0.081103854
0003d0 dd af c0 bb 32 bb 8a 3c 3c 30 a9 bd 55 d7 08 3e
       -0.0058803395 0.016934965 -0.08261153 0.13363393
0003e0 42 fe 20 bd 08 aa a8 3d 6f 06 8a bd d9 c7 02 be
       -0.03930498 0.08235556 -0.06739508 -0.12771548
0003f0 83 dc 0c be 4f 62 ca bd 8f dc 0b 3e 35 b2 73 3d
       -0.13755994 -0.09882032 0.13658355 0.059496123

critic.2.bias f4 [64]
000000 26 71 a6 3e 97 a9 d0 bd 02 50 14 3e dd dd b2 bd
       0.325082 -0.10188597 0.14483646 -0.08733723
000010 66 52 6e bd 7c 13 c4 3c 62 ed 15 3b ea c5 60 be
       -0.05818405 0.023935072 0.0022877087 -0.21950498
000020 7d 1f f4 bd 3d 58 db 3d 7f 84 c4 3d 62 13 f7 bc
       -0.119200684 0.107101895 0.09595584 -0.03016061
000030 23 aa 54 be ac b8 a0 bd bc f2 1f be cc 30 88 3d
       -0.20768027 -0.07847723 -0.1561994 0.06649932
000040 70 99 26 be e5 43 14 be 1d 1f b1 bc 2f 05 69 bd
       -0.1626947 -0.14479025 -0.021621281 -0.05688971
000050 f1 55 99 3d 02 95 6d bd f8 1f 08 3e 33 4f 1f be
       0.07487095 -0.058003433 0.13293445 -0.15557556
000060 3b 12 81 3c ac 93 74 be 42 5a 4a bd f4 df ab bb
       0.015755763 -0.23884457 -0.049402483 -0.005245203
000070 c2 61 36 bd 8e 85 a8 bd 85 79 90 bd ad 98 6d bd
       -0.044526823 -0.082285985 -0.07054428 -0.05800693
000080 61 9b ce bd 32 a3 fa bd 5a 70 a7 3e a8 89 80 bd
       -0.1008823 -0.12238158 0.32702905 -0.06276256
000090 78 ed a6 bd ce 2e 1c bd d8 b9 94 bd 1b ad f2 bc
       -0.08150762 -0.038130574 -0.072620094 -0.029623559
0000a0 1f 63 82 3e 02 67 c0 bd 19 f6 cd bd ef 32 59 3d
       0.25466248 -0.09394647 -0.10056705 0.05302709
0000b0 29 fd 24 be 3f b2 ab bc 39 ea e1 bd f8 a2 d8 3c
       -0.16112198 -0.020959018 -0.110310026 0.026444897
0000c0 03 30 f5 3c 7a 07 b7 bd 95 93 95 3e 16 ff 04 be
       0.02993012 -0.08936973 0.2921416 -0.12987933
0000d0 42 e8 6b bd b4 1c 50 3e 32 a7 53 bd f8 b2 78 bb
       -0.057594545 0.2032345 -0.05167312 -0.003794847
0000e0 93 df b9 bc 39 fb af bc f8 76 bc bd fb bd 4c 3d
       -0.022689616 -0.021482097 -0.09202379 0.049985867
0000f0 a4 d3 fb bd 47 b6 c6 bd 11 72 a3 bd ee 24 f0 bd
       -0.122962266 -0.097027354 -0.07980741 -0.11725794

critic.4.weight f4 [1, 64]
000000 b9 3f 6b be dc 95 52 bc 86 73 db 3d 74 38 16 bb
       -0.22973527 -0.012853112 0.10715394 -0.0022921832
000010 49 7b b5 bb 43 9e 72 be d9 d5 c5 3c f8 2c 84 3c
       -0.0055383784 -0.23693185 0.024149822 0.016134724
000020 d0 15 99 3c 0f f1 3e be a0 a7 9c 3d 45 ae fb b9
       0.018687159 -0.18646644 0.076491594 -0.00048004292
000030 bc 6f 15 bc bb 20 73 bd 8a c4 4a bc 76 05 86 be
       -0.009120878 -0.059357386 -0.01237596 -0.2617604
000040 c6 cf 9a bc ab 72 ce bc 45 ac 06 3d 29 ac 9b 3c
       -0.018897902 -0.025201162 0.032879133 0.01900299
000050 0c 8c 2a be cf 5a 56 bc 91 18 f4 bd 2e 6c d0 bb
       -0.16654986 -0.013083174 -0.11918748 -0.0063605523
000060 3f 52 cb bc 08 a3 67 be 9b bd 8f 3d 98 72 ba be
       -0.024819491 -0.22620785 0.07018586 -0.36415553
000070 9b d5 f9 3c 43 ab 90 3b 4c 57 ac bc 7e 73 fb 39
       0.030497363 0.0044149472 -0.02103772 0.000479605
000080 df 86 fe bb 04 d4 6d 3c 44 bd 2f be 82 c1 14 bb
       -0.0077675427 0.0145158805 -0.17162043 -0.0022698347
000090 09 e3 a8 bc be c7 a6 39 89 59 56 be c7 6e 08 be
       -0.020616071 0.00031810807 -0.20932592 -0.13323508
0000a0 e3 c6 53 be ad 62 f9 3d ae 4c 52 3c 87 5f ca 3d
       -0.20681338 0.12177024 0.012835665 0.09881502
0000b0 80 67 04 be dd 42 44 3d 7d 55 3d 3c 97 ea 10 3e
       -0.12930107 0.04791533 0.0115560265 0.14151989
0000c0 0a 5d 5e be b7 e2 94 bc b0 17 46 be 72 09 ce 3a
       -0.21715179 -0.018174512 -0.19344974 0.0015719368
0000d0 77 b4 02 3e df 4d 02 be 94 44 fc 3d 59 8f be bd
       0.12764154 -0.12725018 0.12317768 -0.09304685
0000e0 6e 67 76 ba ac 4d 67 3c a9 ab 05 3b e1 fa d9 bd
       -0.00093995675 0.0141176395 0.0020396507 -0.106435545
0000f0 41 91 8d bd 5d 2c 2b bd 23 61 8e be 1c b9 c2 bd
       -0.069124706 -0.041790355 -0.27808484 -0.09507963
